models/saved_models/normalized_480_best_model.pth (torch, 239524 bytes, 24 tensors)

cnn.0.weight f4 [8, 1, 3, 3]
000000 a3 af 7a 3e f4 c9 ef 3d e9 91 1f bf 8a 97 5c 3c
       0.24481063 0.117084414 -0.62332016 0.013463864
000010 bd 61 cc 3d 80 62 21 be 42 8e 2c 3e 29 04 17 bd
       0.099795796 -0.15760231 0.16851142 -0.0368692
000020 4b 15 61 3d a6 41 00 3f 04 d0 31 3e ac df ce be
       0.054951947 0.5010017 0.17364508 -0.40405023
000030 30 a8 38 be db 42 db 3e cf 5f 71 3e f8 cf bc bd
       -0.18032908 0.42824444 0.23571704 -0.092193544
000040 91 15 85 3d 15 3f 9a bd 30 37 de 3e 35 e0 1d be
       0.06498254 -0.07531563 0.4340148 -0.1541756
000050 f0 7e 21 3e cf 07 96 bd fa 4c f0 bd 5a 92 7b 3d
       0.15771079 -0.07325708 -0.11733432 0.06141887
000060 3a 5d 96 bd 6e 06 f9 be 01 f8 9e 3c 9a 78 80 be
       -0.07342 -0.48637718 0.019405367 -0.25092012
000070 01 83 e2 3c 55 fe 09 3e c0 49 05 3d 36 cb cc 3d
       0.027650358 0.13475926 0.032541037 0.09999697
000080 74 1b 5c 3e 34 e2 18 bc 87 3e e0 bd df c7 f1 3c
       0.21494848 -0.009331275 -0.10949426 0.029514251
000090 00 57 63 3d 9d 5a 9f be 46 49 1f 3d e3 e4 1d 3f
       0.05550289 -0.3112382 0.03888824 0.6167738
0000a0 9a 14 7e 3e 52 04 40 3e d8 1a 72 3d eb de 61 3c
       0.24812546 0.18751648 0.05910763 0.013786058
0000b0 ba 3a 17 be ac c1 3c ba b3 51 d8 3b 9f e7 48 3a
       -0.14768496 -0.000720049 0.006601536 0.0007663909
0000c0 ee d5 cf 3e 97 df 39 3e f9 ab 9b 3e 7b 56 86 3e
       0.40592903 0.18151699 0.30404642 0.26237854
0000d0 6e f6 56 bd 6e 5e 18 3d 3f 36 8c be 25 6f cf be
       -0.052481107 0.03719943 -0.27385136 -0.40514484
0000e0 10 1e ce be ad d2 a3 be c2 3d cc bd 5f 5d 3f 3c
       -0.4025731 -0.3199667 -0.09972717 0.011679976
0000f0 ba ea 97 be 3d a6 f3 3b b3 9b 57 be 44 d8 0e be
       -0.2967127 0.0074355886 -0.21055488 -0.13949686
000100 39 ca ae 3d cf b7 9c 3d a4 85 6a 3c ce 00 97 3e
       0.08534665 0.07652246 0.014314089 0.294928
000110 7c f4 e2 3d 76 3e b7 3e 35 c6 a4 3e 5f 88 bd 3b
       0.11081788 0.3578984 0.3218247 0.005784079

cnn.0.bias f4 [8]
000000 bd 23 fc 3d e2 9a 48 3a 24 45 d3 3d 33 81 d7 3d
       0.12311504 0.0007652474 0.10315922 0.1052269
000010 d3 07 8e 3e 9c d4 3a be a5 34 3b 3e ce 5a ee bd
       0.27740344 -0.18245167 0.18281801 -0.11638413

cnn.1.weight f4 [8]
000000 d0 ca 34 3f b8 fe 9a 3f 88 07 3b 3f 85 f2 88 3f
       0.7062197 1.2108984 0.73058367 1.0699011
000010 e5 5a 97 3f 48 56 9a 3f 70 0c 24 3f da fa 9a 3f
       1.1824614 1.2057581 0.6408148 1.2107804

cnn.1.bias f4 [8]
000000 7e 76 c0 3d 6b 66 21 be fe fc ab bc a0 10 69 bc
       0.093976006 -0.15761726 -0.02099466 -0.014225155
000010 ad 53 07 be 63 d3 e4 bd ca 9d a7 3d 48 5c 52 bd
       -0.13215514 -0.11173131 0.08184393 -0.051357538

cnn.1.running_mean f4 [8]
000000 1b 63 23 3e dc 53 02 bf d9 3e d0 3e bd 2c be bc
       0.15955774 -0.5090921 0.4067295 -0.023214692
000010 b6 21 89 be cd 2b 7d bf 92 ce c0 3f 32 31 7d bf
       -0.26783532 -0.9889496 1.506304 -0.9890319

cnn.1.running_var f4 [8]
000000 09 d4 0a 40 b0 45 ac 40 86 5f 82 40 6f 2a 84 3f
       2.1691916 5.383507 4.0741606 1.032545
000010 d5 b2 e4 40 fb 4b 20 41 ec 51 bd 41 eb 18 2a 41
       7.14683 10.01855 23.665 10.6310835

cnn.4.weight f4 [16, 8, 3, 3]
000000 e5 ec b0 bd 15 c1 78 bd a2 57 99 3d 17 fc 51 3d
       -0.08638934 -0.060731012 0.07487418 0.051265802
000010 2a d1 2f bd 5d 24 c9 bd 64 a9 4f 3c 6f a7 c5 bd
       -0.042924084 -0.09821389 0.012674663 -0.09651076
000020 f0 bd 15 3d 02 3b f7 bd 4b a3 a8 be 23 2d 22 3d
       0.03655809 -0.12071802 -0.32937083 0.039593827
000030 8e 57 e0 bd 36 6f 0a be f2 91 9b bd 04 2e 44 3d
       -0.109542 -0.13518986 -0.07596196 0.047895446
000040 15 bf bb 3c 92 c6 00 be a9 a3 50 3d ee 8c b9 bd
       0.022918263 -0.12575749 0.05093733 -0.09060083
000050 83 c5 74 3d da aa 29 3c 5b 3b 0c bc fd 1d 02 bd
       0.059758674 0.010355676 -0.008559073 -0.03176688
000060 bb 14 27 3d c3 90 db bd 41 8f 5f 3d d4 85 dd 3d
       0.040791254 -0.107209705 0.054579977 0.10816541
000070 f0 4c bc bd b9 02 bc 3c 77 58 72 3e ab 30 c4 bd
       -0.09194362 0.022950517 0.23666559 -0.09579595
000080 59 c1 3d 3c 9c dd f9 3d e7 df cc bb bb cc 73 3d
       0.011581742 0.12200472 -0.006252277 0.059521418
000090 9e 2a 3e 3d 43 2b ac be fa 2e 28 3d 34 83 6b 3d
       0.04642736 -0.33626756 0.041060425 0.057498172
0000a0 cd df c1 be 8f 87 d4 3d 73 ad 00 3e 37 82 b8 3c
       -0.3786606 0.10377418 0.12566166 0.022523029
0000b0 53 8c 1c 3e fb cf 8d bd a8 0f 1c be ae 48 be bd
       0.15287904 -0.06924435 -0.15240347 -0.09291206
0000c0 f8 d9 29 be 03 b8 f2 bc ea 34 15 3e 39 df 03 be
       -0.16587055 -0.02962876 0.14570966 -0.12878121
0000d0 25 93 06 3d b1 31 8f bd 2b 8a 3b bd 0f c9 a3 3d
       0.03285517 -0.069919 -0.045786064 0.07997333
0000e0 d8 1b a4 3c cf 18 ad bd 30 7e 40 3d aa 79 22 3b
       0.020032808 -0.084519975 0.04699534 0.0024791756
0000f0 91 ed a3 3c fd a7 aa 3d df 94 65 bd ea 53 b9 bc
       0.020010741 0.083328225 -0.056050178 -0.022623021
000100 bf 2a 89 3d 91 2e 67 3d 21 d2 41 be d6 d1 44 be
       0.06697606 0.056440894 -0.18927814 -0.19220671
000110 e7 6a 4d 3c db bf aa 3d ec 5e 5e be a7 31 7e 3c
       0.012537695 0.08337375 -0.21715897 0.015514768
000120 02 2f aa 3d 22 94 36 be 19 bf a8 bc 1f 5d 29 bd
       0.08309747 -0.17829946 -0.020598935 -0.041348573
000130 b4 15 03 be a3 0e c6 bc d8 4c 5f 3d 4b a7 79 bc
       -0.12801248 -0.024176901 0.054516643 -0.01523764
000140 d1 a3 c5 3d ff 83 c0 bd c9 6c 2d be 6e ee 84 be
       0.09650386 -0.09400176 -0.1693603 -0.25963157
000150 82 ab 21 be d9 c8 b5 3d 7f d2 93 bd 74 08 4b bd
       -0.15788081 0.08876199 -0.07217883 -0.04956861
000160 b1 2e b3 3d 3c 50 9d bd 76 d1 2e bd c3 8c 08 3e
       0.0874914 -0.07681319 -0.042680226 0.13334946
000170 a7 48 d2 3b ac e0 a7 bd 43 f7 c2 3d 59 8b 8d bc
       0.0064173522 -0.0819715 0.09519818 -0.01727836
000180 02 05 09 be 49 eb b8 bd fe 2a b6 3c 00 b2 88 3c
       -0.13380817 -0.09029252 0.022237297 0.01668644
000190 8a f8 06 3d d8 9e c0 bc 1b 4b 59 bd dc e0 fe bc
       0.03295187 -0.023513243 -0.05305014 -0.03111308
0001a0 2a 1d dd 3c d1 97 a3 bd be c5 29 3d 50 a5 b2 3c
       0.026991446 -0.07987941 0.041448347 0.021807343
0001b0 37 fc c5 bc 40 4b 91 3c c5 d6 89 bd e5 a5 e3 3d
       -0.024168117 0.017736077 -0.06730417 0.11115626
0001c0 e5 23 1a 3d 71 f9 4a 3e 8b a1 55 3d 9e eb ea bd
       0.037631888 0.19821717 0.052156013 -0.11470722
0001d0 2c 93 00 3e 0e b6 e9 bd 13 e1 91 3b 93 e0 b1 bd
       0.12556142 -0.11411677 0.0044518798 -0.08685412
0001e0 e5 68 07 3e 48 ba ab 3e 36 a2 d6 3d a9 7d 0b be
       0.13223608 0.3354056 0.10480158 -0.13622154
0001f0 4a 1b 8e bd b4 59 c8 bc 69 7a 83 3d e0 f6 57 bb
       -0.06938799 -0.024456836 0.06419832 -0.0032953545
000200 5f 37 af 3d 7a 4b 74 3b 3a b6 30 3d ba e9 48 bd
       0.08555483 0.0037276433 0.043142535 -0.049051024
000210 16 1b 0f bc 55 36 99 3d ad 65 53 bc cd 13 1e bd
       -0.008734485 0.07481066 -0.012902659 -0.038593102
000220 6d f6 17 3e d0 1f 41 3c e5 82 0c 3e cd 7b a3 3e
       0.14840098 0.01178737 0.13721807 0.3193039
000230 51 6b 8c 3d ef 42 43 bd d3 a8 90 bc e0 c1 4e be
       0.068564065 -0.047671255 -0.017658627 -0.20191145
000240 76 16 99 bd 24 ff d5 bc b5 18 80 3d 03 b3 60 be
       -0.07474987 -0.026122637 0.062547125 -0.21943288
000250 be 73 3a be 70 9b 61 bd 13 ba b1 3d 18 cb c9 3c
       -0.18208215 -0.055079877 0.08678069 0.024632975
000260 24 e2 e5 bd 6e 61 11 bc 57 77 1b be 43 11 77 3e
       -0.112247735 -0.008873327 -0.15182243 0.24127679
000270 89 f7 4f 3d 40 c2 ea bd 8c da f0 3c 53 ef a4 3d
       0.050773177 -0.114628315 0.029401086 0.0805346
000280 77 c4 95 3a 8a 7e c6 bd f3 11 09 3d e0 8b ce bd
       0.0011426349 -0.09692104 0.033464383 -0.10085273
000290 42 00 66 3d 07 93 1e 3d e4 c9 5f bc 47 2f 41 bd
       0.05615259 0.038714435 -0.013658974 -0.047164228
0002a0 a8 64 a5 bc 72 a7 95 3d 48 38 40 be c7 52 14 be
       -0.020189598 0.07307328 -0.1877147 -0.14484702
0002b0 82 de d3 bd 5f a6 4f bd 26 32 24 be b2 b3 a4 3d
       -0.10345174 -0.050695773 -0.16034755 0.08042087
0002c0 26 d9 ed bc 40 de 06 be d6 6a 11 3e b4 fc b1 bd
       -0.029034209 -0.13170719 0.14200911 -0.086907774
0002d0 02 77 44 bd d5 21 91 3c ff f4 d1 3c a7 f2 2e bc
       -0.047965057 0.017716328 0.025629519 -0.01067797
0002e0 53 19 2e be 6c a0 b6 bd b1 65 b4 3d 0b 1f 09 bd
       -0.17001848 -0.08917317 0.088084586 -0.03347687
0002f0 d6 bb e7 bd d4 35 ba 3d 3c f6 01 3e 83 a5 22 3c
       -0.11315124 0.09092298 0.12691587 0.009927156
000300 0b 98 72 bd af 9f 6c 3d c5 45 d4 3d 21 94 13 3e
       -0.05922703 0.057769474 0.1036487 0.14411975
000310 90 af 87 3d 6d 4e 3c bd 24 6e 30 39 b4 ae 3d bd
       0.06625283 -0.04597323 0.00016825699 -0.046309188
000320 e6 8b a2 3d de 9c 95 3b c2 65 44 3e 45 a6 81 3d
       0.0793684 0.004565819 0.19179443 0.063305415
000330 e8 e7 7d 3d bd 17 78 bd 8c bd f9 3b af 0f e1 3d
       0.06198874 -0.060569514 0.0076214727 0.109893195
000340 fb 99 80 3d 8e 54 28 3e de 5f bc bc 2b df 77 3e
       0.062793694 0.16438505 -0.022994932 0.24206226
000350 73 e3 ba bc d2 89 2b 3d 40 6e 71 3e 47 3f 98 3c
       -0.022813534 0.041879483 0.23577213 0.01858486
000360 de bc 64 3d d8 43 1f 3d 4b 9d 57 bc 0e 2c 29 3c
       0.05584418 0.03888306 -0.01316006 0.010325445
000370 fb ec 83 bd 21 2b 89 bc e4 23 3d be 1a 3f 0d bd
       -0.06441685 -0.016744198 -0.18470722 -0.034484006
000380 f4 ea 3e bd a4 69 b0 bc de 91 65 3d 00 3b f8 3c
       -0.046610788 -0.021534748 0.056047313 0.03030157
000390 71 75 bc bd c2 64 13 3d c6 11 5c bb b6 f1 8c bc
       -0.09202088 0.035984762 -0.003357993 -0.0172051
0003a0 26 d2 17 3e 0c 40 f1 bd 4d 2c 82 3d f0 e3 fd 3c
       0.14826259 -0.11779794 0.06356106 0.030992478
0003b0 bb 39 7e 3c a9 4a f7 3d 2e 78 fb 3d bd 73 d1 3c
       0.015516694 0.12074787 0.12278782 0.025567884
0003c0 3d fa 24 bd 72 8e 5c be 03 2a ca bd 5b ff 8a 3d
       -0.04027771 -0.21538714 -0.09871294 0.067869864
0003d0 1a ec 3b be c2 9c 1e 3d df 9a 2c 3e 01 86 3f be
       -0.18351784 0.038723715 0.16855954 -0.18703462
0003e0 af 9c 9c 3d 66 a9 f3 3d bc a6 f7 bd 44 6b 6d bd
       0.076470725 0.118975446 -0.12092349 -0.057963625
0003f0 74 76 75 be fa 76 e6 3d 9a 14 d4 ba 18 8c 7e bd
       -0.23970968 0.11253162 -0.0016180456 -0.062145323

cnn.4.bias f4 [16]
000000 01 77 ab 3d 57 7b cf 3b 92 58 0c 3d 44 01 31 bd
       0.083723076 0.006331842 0.034264155 -0.043214098
000010 38 c4 53 bd b1 56 e5 3d b1 9a d2 3c 79 b9 4b bd
       -0.0517008 0.11198176 0.025708528 -0.049737427
000020 e9 b2 04 bd 9b a8 0d bc 08 eb 58 3c 50 c0 b8 bd
       -0.032397185 -0.008646156 0.01323963 -0.09021056
000030 6d 78 21 3d 02 7c 8b 3c d4 6e cd bd 3d 8f 19 3d
       0.039421488 0.017026905 -0.100309044 0.03749012

cnn.5.weight f4 [16]
000000 37 06 93 3f 84 1d be 3f 1e f8 86 3f 98 a5 89 3f
       1.1486272 1.4852757 1.0544469 1.075366
000010 b7 02 71 3f ac a3 a8 3f ad fb 7b 3f 8c 0c c1 3f
       0.9414477 1.3174949 0.984309 1.5081954
000020 85 e0 a3 3f 28 0a 96 3f d9 ff 82 3f d8 52 bf 3f
       1.2802893 1.172185 1.0234329 1.4947157
000030 2a 02 d3 3f 68 f3 a7 3f f7 96 a5 3f b0 aa a4 3f
       1.6485035 1.3121157 1.2936696 1.286459

cnn.5.bias f4 [16]
000000 33 63 f0 bd 92 77 33 bd 74 84 51 bd f8 eb 27 bd
       -0.11737671 -0.043815203 -0.051151708 -0.04099652
000010 de e5 b5 bd 39 a1 56 3c 2b 0d 9a bd f2 72 0b bd
       -0.08881734 0.013099962 -0.07522043 -0.034045167
000020 2f fd e9 bd ba f5 9f ba 0f 09 5c bd 0a 28 0b be
       -0.11425244 -0.001220397 -0.053719576 -0.13589492
000030 4f fc 19 3d a7 75 a2 bd 69 70 51 bd fd 74 f4 3c
       0.037594136 -0.07932597 -0.051132593 0.02984094

cnn.5.running_mean f4 [16]
000000 3e ea ef be da 4a af 3d 28 d0 24 3d 04 f5 36 3e
       -0.468584 0.08559199 0.040237576 0.17866904
000010 8a ef 19 bf 22 05 06 bb ae b8 82 be cf e2 6b be
       -0.6013113 -0.0020449837 -0.25531524 -0.2303574
000020 03 d0 00 be 3c 9d 0b 3c 06 04 4b bd 1d 99 d7 be
       -0.1257935 0.008521374 -0.049564384 -0.42109004
000030 84 4a 24 3e 52 02 d8 be 5b b6 11 be ab 3b 62 bb
       0.1604405 -0.4218927 -0.1422972 -0.0034520428

cnn.5.running_var f4 [16]
000000 1f d4 86 3e ab dc c7 3d d9 70 11 3e ee 0f 19 3e
       0.2633371 0.09758886 0.14203204 0.14947483
000010 f9 15 a3 3f c1 a1 c9 3d 51 f4 be 3e 29 af a7 3d
       1.274108 0.09845305 0.37295774 0.08187706
000020 f8 90 28 3e a0 95 9e 3d c1 5a 17 3e 34 4e 66 3e
       0.16461551 0.077433825 0.14780714 0.2249077
000030 db 97 e7 3d 6a 7f 39 3e a2 30 c2 3d f9 90 a9 3d
       0.11308261 0.18115011 0.09481932 0.082796045

temporal_encoder.weight_ih_l0 f4 [96, 240]
000000 c6 65 aa 3d 76 b5 b4 3d 75 3c 11 bd e0 ed 12 bd
       0.08320193 0.088236734 -0.035458047 -0.035871387
000010 6a be af be 94 3a ca bc 9e 35 31 bd f2 5e 04 be
       -0.34324962 -0.024686135 -0.043264024 -0.12926844
000020 08 5d 41 3d 4a cc be 3b 25 ff 00 3e ab e3 3c 3d
       0.047207862 0.005822693 0.1259733 0.04611556
000030 81 67 9b 3e 92 57 c1 bb 96 36 9b 38 45 0e ba 3e
       0.30352405 -0.005900332 7.4011434e-05 0.36339012
000040 91 2d 94 3d 7d b3 01 3e 13 77 b7 3d 8c 77 bc bd
       0.072352536 0.12666126 0.089582585 -0.09202489
000050 e7 14 1e bc fc db a5 3e 27 e8 79 3d 66 d4 f2 3d
       -0.009648538 0.32394397 0.061012413 0.11856918
000060 50 b8 8e 3e 08 71 1f be 1a 5f cf bd 58 75 ba bd
       0.27874994 -0.15570462 -0.10125561 -0.09104413
000070 0e 9a 7f bd 20 ac 98 bd 0b 20 1f 3e 43 bb 80 3d
       -0.062402777 -0.07454705 0.15539567 0.06285717
000080 d8 ba 09 3d c1 7a f5 3d 3d d0 c1 3d 56 a1 b2 bd
       0.033625454 0.11986304 0.094635464 -0.08722179
000090 29 59 3c be a9 19 e7 bd a1 ca 9a bd d7 d9 9a be
       -0.18393387 -0.11284191 -0.0755818 -0.30244324
0000a0 16 a2 6e bd a3 7f 85 be 85 eb 06 3d 3d d0 57 3d
       -0.058260046 -0.26073942 0.032939453 0.052688826
0000b0 d6 43 21 3e bd 2a 8a 3e 69 7d 13 3e a2 d6 83 3e
       0.15748534 0.26985732 0.14403309 0.2574969
0000c0 ed b5 31 3e 58 6a 29 3e a7 54 20 be ac 14 dc 3a
       0.17354555 0.16544473 -0.15657292 0.0016790829
0000d0 5b 10 5e be e3 09 54 be 53 61 8e bd 1c 35 7d be
       -0.21685927 -0.20706896 -0.06952157 -0.24727291
0000e0 3f f8 10 be 53 6a 2c 3d d7 06 85 3d 0f a8 ba 3d
       -0.14157198 0.042093586 0.06495445 0.09114086
0000f0 18 c3 6e 3d 99 c3 24 3e cc 49 92 bd b9 d0 20 be
       0.058291525 0.1609024 -0.07142982 -0.15704621
000100 d4 aa 0e bd 56 ee 4f be 33 e2 62 be 19 48 94 be
       -0.034830883 -0.20305762 -0.221566 -0.28961256
000110 e2 83 e6 be 72 09 fb 3d 94 66 dc 3d 22 39 b4 bc
       -0.45022494 0.12257661 0.10761753 -0.0219999
000120 61 a9 1e 3d 10 ef 9d bd 40 f2 ff 3c 74 40 a2 bd
       0.03873575 -0.07711613 0.031243443 -0.0792245
000130 9e 37 04 be 4c b7 15 3e 66 61 71 be 20 12 eb bd
       -0.12911841 0.14620703 -0.23572311 -0.114780664
000140 5e c8 9d 3e ba 0b 07 3d bd d2 5e 3d 9a 85 80 3b
       0.3081693 0.032970168 0.054400194 0.0039221765
000150 79 11 bc 3e de d6 90 3e 38 57 b8 3d dc 81 39 3d
       0.3673208 0.2828893 0.09001011 0.04528986
000160 24 27 e7 3a cd 72 89 3e 58 5b 62 3d bf fa 10 be
       0.0017635566 0.268454 0.055262893 -0.14158152
000170 25 e5 5a 3e 49 7e 2f be c6 95 cf be 69 62 1b 3e
       0.21376474 -0.17138018 -0.40543956 0.15174259
000180 ac 0e 83 bd 03 74 a6 be cb c8 18 be 30 6d f8 bd
       -0.06399283 -0.32510385 -0.14920346 -0.12130201
000190 a8 47 db bd 40 ad a9 3c 16 45 86 3d 2f 96 19 be
       -0.10707027 0.020712495 0.06556146 -0.14998697
0001a0 5a 53 bb bd 90 3c 62 3d 28 ca 77 3e 1f ed 5c 3c
       -0.091467574 0.05523354 0.2419821 0.013484268
0001b0 2c 6c 98 3e 3f 7a 18 3e 7e fc 14 3e ee ff 47 bd
       0.2977003 0.14890383 0.14549443 -0.048828058
0001c0 f7 43 30 3b a8 72 9e bc 3a aa 1b 3d 89 a4 2e 3f
       0.002689598 -0.019341782 0.038004138 0.6821981
0001d0 78 9d 6c 3e 27 fa 3f 3e f6 d2 e6 3d 33 db 5c 3e
       0.23106945 0.1874777 0.11270706 0.21567993
0001e0 a7 13 03 3e 1f 43 95 3e 6d 91 a3 3e aa 96 4e 3e
       0.12800466 0.29152772 0.3194689 0.20174661
0001f0 8d e2 a2 3d 6a de 50 bd 9b ae 04 3e ff 14 55 bd
       0.079533674 -0.05099336 0.12957232 -0.052021977
000200 a4 32 0b 3b 71 6a 36 3e 8a 25 9f 3e a1 fd 9a 3e
       0.00212399 0.17814042 0.31083328 0.30271628
000210 50 c1 96 3e 12 31 9d be e4 ea a1 3e b3 ae 2e 3d
       0.2944436 -0.307015 0.3162452 0.042647075
000220 69 2b b4 3d 98 f2 ee bd 4b ce 81 bd 69 bf c1 3e
       0.08797342 -0.11667365 -0.063381754 0.37841347
000230 da 69 98 bb 9d fa d5 3d 20 76 14 be 21 08 f8 bb
       -0.0046512904 0.10448191 -0.14498186 -0.0075693284
000240 68 10 82 be cd f8 5e be 5c 62 08 be cf bd 1b be
       -0.25403142 -0.21774597 -0.13318771 -0.15209125
000250 af ab 00 be ea 4b e1 3d 3f e1 15 be fa 34 b8 3d
       -0.12565492 0.110008076 -0.14636706 0.089944795
000260 09 39 93 3c 71 07 92 bd f8 fc a5 be 9f aa a9 bd
       0.017971532 -0.071303256 -0.32419562 -0.082844965
000270 3c d1 38 bd 18 52 7d be 4c 69 0b bd 1b ba dd bd
       -0.045121416 -0.24738348 -0.034035966 -0.108265124
000280 84 78 64 be 10 48 e0 bd 5c ec ba ba 02 23 1a 3d
       -0.22311598 -0.10951245 -0.0014261114 0.037631042
000290 87 1e 84 3c 50 e5 16 bd 27 e6 52 3e f4 a7 a7 3e
       0.016127838 -0.036839783 0.20595609 0.32745326
0002a0 a9 19 b4 bd f1 02 4c be 3b 81 81 be c3 43 6b 3e
       -0.08793957 -0.19922997 -0.25293908 0.22975068
0002b0 08 78 92 bd e1 b4 05 3e 1d 97 2f 3f 89 92 8c 3e
       -0.071518004 0.13057281 0.68589956 0.27455547
0002c0 1e 78 55 3e f0 1c e3 3e c5 8c 69 3d 6e ec 42 3e
       0.20846602 0.44358015 0.057019014 0.19035503
0002d0 58 84 d7 bd c8 cf 22 3e 82 06 82 3e e3 a5 c3 3e
       -0.105232894 0.15899575 0.2539559 0.382125
0002e0 3a 0d e5 3e 35 39 5f 3e 42 81 78 3e 79 10 aa 3e
       0.44736654 0.21799167 0.24268058 0.33215693
0002f0 39 53 4b 3e e2 d2 10 3e c6 22 ab bc 93 e8 74 3e
       0.19855966 0.14142945 -0.020890605 0.23916845
000300 db e0 51 be 65 99 5e 3d 71 98 d9 bd fe 6f 68 be
       -0.20495932 0.054345507 -0.10624779 -0.22698972
000310 52 a2 b4 bd df 83 77 be 3e 98 d4 bd 69 f3 7c be
       -0.08820023 -0.24171399 -0.103806004 -0.24702229
000320 67 b4 55 be 05 be 24 3d 25 5a c6 3d bc 0a dc bd
       -0.208696 0.04022028 0.096851625 -0.10744235
000330 40 e6 f2 3e cf a2 b0 3e 34 9f c3 3e 20 bb 16 3e
       0.47441292 0.34499213 0.382074 0.1471982
000340 68 0a c4 bd 58 22 09 be c2 b1 2c 3e cc 91 cc bd
       -0.09572297 -0.13392007 0.16864684 -0.09988746
000350 09 9e 9a be 89 3e 2c 3e 0e 87 de 3d 61 5e 27 3e
       -0.30198696 0.1682073 0.108656034 0.16344596
000360 67 03 cb bd 37 2e c0 bd a5 72 f8 3c db 74 87 3e
       -0.09912758 -0.09383815 0.030328104 0.2645634
000370 f7 1d 89 3e 3d cf 11 3e 5c 18 76 bc b1 3d 73 be
       0.26780674 0.14239211 -0.015020456 -0.23754002
000380 94 ad a9 3e 06 79 26 3e 14 c6 2a 3e 59 20 f5 bc
       0.33140242 0.16257104 0.16677123 -0.029922651
000390 53 5a 93 3e 03 ba b9 3e c5 e9 9c 3d 18 25 86 3d
       0.2877985 0.36274728 0.076617755 0.06550044
0003a0 1f 19 00 3e 88 91 6b be 6d 8f 34 3b f1 f0 29 3d
       0.12509583 -0.23004735 0.0027551309 0.041489545
0003b0 77 b5 d3 3c be 6c 29 3d ad 02 94 bc b1 38 17 bd
       0.025843365 0.04136347 -0.018067682 -0.0369193
0003c0 b1 22 2a 3e 96 e0 c2 3d f4 9f a5 3d 00 53 f6 3b
       0.16614796 0.095154926 0.08087149 0.0075172186
0003d0 5f c2 2d 3d 39 bb 5f 3d 52 6f 24 be 86 43 97 bc
       0.042421695 0.05462191 -0.1605809 -0.018464815
0003e0 75 ec 1c be d2 ae ed 3c 19 f8 ca bd 3d 95 a6 bd
       -0.15324576 0.029014025 -0.09910602 -0.08133934
0003f0 29 62 d6 bd c0 e8 c6 bd 09 b4 52 bd a6 43 82 3d
       -0.10467941 -0.09712362 -0.051441226 0.06360559

temporal_encoder.weight_hh_l0 f4 [96, 32]
000000 bc 66 97 3e c5 10 0a be 91 1e d7 be f0 75 ab 3b
       0.29570568 -0.1348296 -0.42015508 0.005232565
000010 f3 df 44 bc 5a 70 5f 3d 99 9c 1e bc 86 f0 ba 3d
       -0.012016284 0.054550506 -0.0096808905 0.091279075
000020 8f 06 6f be 2b 88 10 3e 5d 93 a9 3d 0b d0 c3 be
       -0.23342346 0.14114444 0.082800604 -0.38244662
000030 b0 55 c6 bd c9 f8 85 bd 83 91 51 be b8 06 02 3d
       -0.09684312 -0.06541593 -0.20465665 0.03174469
000040 d8 21 47 3d a3 67 69 be cc 4e 20 3e b8 eb 5a be
       0.04861626 -0.2279344 0.15655059 -0.21378982
000050 5b e7 34 3d d5 31 80 3e c6 8a 61 bc 30 14 65 3e
       0.04416595 0.2503802 -0.013765996 0.22370982
000060 26 06 d8 3d 2b ad 8e 3c 3d 92 79 3d fd 8a 97 3e
       0.10548048 0.017416557 0.06093048 0.29598227
000070 05 72 9e be 7d b0 23 3e f9 07 02 3e 1f f9 8c bc
       -0.30946365 0.15985294 0.12698354 -0.017208634
000080 b0 da 25 3e 2e 35 80 3e bf 9f fb be 9b b0 84 bc
       0.16196704 0.25040573 -0.49145314 -0.016197493
000090 aa d4 4f 3c 2e 61 8b be 9c 06 06 be ba b3 0a bd
       0.01268498 -0.2722258 -0.13088459 -0.033862807
0000a0 eb e8 da 3c 9b 74 f5 3e b8 fd 43 3e ea 1e 0d bd
       0.026722392 0.47940525 0.19139755 -0.03445331
0000b0 93 a6 ca 3e 24 aa 4e bd f0 09 9c 3e f0 21 d0 bc
       0.3958021 -0.050455227 0.30476332 -0.025406808
0000c0 ea 9f 8a bd 2c f0 25 3d 2e 64 2c be f9 68 b2 bd
       -0.067687824 0.04051225 -0.1683509 -0.08711428
0000d0 24 67 39 3e 37 41 20 3e 19 71 4d be 2a cc bc 3d
       0.18105751 0.15649877 -0.20062675 0.09218629
0000e0 ed 9c 2b 3c ef d2 f6 3d ca 6c 8e be 21 f8 d4 3b
       0.010474426 0.12051951 -0.27817374 0.006499306
0000f0 9a d0 b6 bd dc 70 ea bb 31 ca 26 3e 82 c9 b9 bc
       -0.08926506 -0.007154567 0.16288067 -0.022679094
000100 0b 5b 1b be 81 08 db bc 77 0d 70 3e 0d 46 b1 3d
       -0.15171449 -0.026737453 0.23442636 0.08655939
000110 d0 a6 3a 3d 9b c3 27 bd 65 ba a6 3c 7e dd 55 3d
       0.04556924 -0.04095803 0.020352552 0.052213185
000120 9f cf 37 bd 65 1a a4 3d 66 eb ff be f2 b9 bc 3c
       -0.044875737 0.08012847 -0.49984282 0.023037884
000130 b1 2d 23 3d 5c ff 13 be 9f a2 cf 3c 55 67 9f bd
       0.039838497 -0.1445288 0.025346098 -0.07783381
000140 cd 14 79 3e c6 45 5b be 05 62 bd bd d5 ea b6 3d
       0.24324341 -0.21413335 -0.09247211 0.089315094
000150 14 25 2c be 4a f2 83 bd 2f 99 cf bc b8 a7 19 3e
       -0.16811019 -0.06442697 -0.025341598 0.15005386
000160 0c 0b d2 3d 9c 94 da bc 5e cc 56 3e 98 5d 08 3d
       0.10256013 -0.02668219 0.20976397 0.033292383
000170 93 3c 54 bc f1 d3 39 be 7c f5 fd bd c9 68 2a 3e
       -0.012953895 -0.18147255 -0.12400338 0.16641535
000180 fa 83 c9 bc 11 cb b2 3d 4e f9 5a 3e 0e 36 46 bd
       -0.024599064 0.08730138 0.21384165 -0.048391394
000190 97 df 09 be 9c 25 b1 3d 9d 25 e3 bc 49 e6 58 3d
       -0.13464199 0.086497515 -0.027727896 0.052953992
0001a0 88 7a 3d be 3e a0 5f 3d 66 1d dd bd b7 e6 0b 3e
       -0.18503773 0.05459618 -0.10796623 0.1366223
0001b0 b2 68 b6 bc 1b 7b 98 bc c0 05 16 3e 71 27 00 3b
       -0.02226672 -0.018613389 0.14650631 0.001955476
0001c0 cf 3c 04 3f 9b ae d2 bd 1c a3 c8 be 01 5f 44 3e
       0.51655287 -0.102872096 -0.39186943 0.19176866
0001d0 88 de d7 3e 8b 04 be bd 45 e7 68 3e 5b 13 7c bd
       0.42161965 -0.0927821 0.22744472 -0.061541896
0001e0 8b 5e b5 bc 78 f7 b8 3d fe bf 07 3f 1a f1 11 be
       -0.022139808 0.09031576 0.5302733 -0.14252129
0001f0 68 09 ec 3e 1d 64 cc 3d f7 74 1e be 85 d3 95 3e
       0.46100926 0.099800326 -0.15474306 0.2926294
000200 d6 a2 c7 39 ef 0d f3 bb b6 d5 e2 3d 9e 37 25 bd
       0.0003807756 -0.0074174325 0.110759184 -0.040336244
000210 63 fd f6 3c fc 5e f8 3b 46 c1 94 bc 46 08 5f bd
       0.030150121 0.0075796824 -0.018158566 -0.05445125
000220 51 37 82 3d ec 3b 0e 3e 3e 42 2d ba ba ff e2 3c
       0.06358207 0.13890046 -0.0006609297 0.02770983
000230 8c d9 56 bb 47 7e 5c 3c f1 35 98 bd 9f bf 1f 3d
       -0.0032783477 0.013457841 -0.074321635 0.039001103
000240 42 27 1c 3c ed 77 0e 3c 56 00 bd 3c 98 17 fb 3c
       0.009530844 0.008695585 0.02307145 0.030650899
000250 13 14 8c 3b 84 54 a0 3d 54 81 cc bd e3 98 41 3d
       0.004274854 0.0782862 -0.09985605 0.047264945
000260 e9 6b a5 bc b7 0f 70 3c 58 b3 20 bd b9 8b 90 3d
       -0.020193057 0.014652184 -0.039233536 0.070579
000270 cc 30 75 bd 86 6b 32 3d 4c 46 1a be 29 43 7f bd
       -0.05986099 0.043559574 -0.15065879 -0.06231991
000280 28 b6 ad 3d 94 97 af be bd 64 4b 3e 2e 7e 86 bd
       0.08482009 -0.34295332 0.19862647 -0.065670356
000290 56 cd 14 be 4e 3a e4 3d fe 2e 81 3d df f7 64 3d
       -0.14531454 0.11143933 0.06307791 0.05590045
0002a0 4c 84 04 3e 0e 75 70 be 7b 6f e1 3d fb 8f e6 3b
       0.12941092 -0.23482153 0.11007591 0.007036207
0002b0 80 bf 21 3d 42 97 dd bc bd 36 05 be 4d cf 83 bd
       0.03948927 -0.027049664 -0.13009162 -0.06436024
0002c0 62 e0 80 3d 63 36 81 3d e5 b4 39 3e 30 5a f5 bd
       0.062927976 0.063092016 0.18135412 -0.119800925
0002d0 92 51 41 3e cd 34 d1 3c 59 2b 89 bd c2 7e 4e 3d
       0.18878773 0.025537873 -0.06697721 0.050413854
0002e0 52 e5 0a bc 53 91 c5 bd 2b 22 a1 3e 80 05 c7 bc
       -0.008477526 -0.09646859 0.3147138 -0.024294615
0002f0 31 89 af 3e 50 47 5a bd d9 61 1e 3e 09 92 3d bd
       0.34284356 -0.053290665 0.15467013 -0.046281848
000300 1d c3 6b 3d 9f 95 a1 bd ea f8 67 be 3d 18 cb bc
       0.05755912 -0.07889866 -0.22653547 -0.024791831
000310 49 21 8b 3d 3b ec 0a be ed bd 04 be b8 a5 ba 39
       0.06793458 -0.13566677 -0.12963076 0.00035600155
000320 58 ee 88 be 87 8b 15 be d7 4d b5 3c e8 e2 e9 bd
       -0.26744342 -0.14604007 0.022131843 -0.11420232
000330 41 25 97 be e7 4c cc 3d ad a8 46 be 9c f9 0d 3e
       -0.2952061 0.099756055 -0.19400282 0.1386475
000340 15 49 88 be de 11 4a 3d 24 10 c5 be bd 63 49 bd
       -0.26618257 0.049333446 -0.38488877 -0.049167383
000350 fc 8c aa 3d e4 44 b9 bd 11 9a 11 be fe 71 3d 3d
       0.08327672 -0.09046343 -0.14218928 0.04625129
000360 33 dd 66 be 28 b6 8a 3e d2 a6 0f 3c 21 2e 53 3d
       -0.22545318 0.270921 0.0087678 0.051557664
000370 42 18 26 3e e4 a0 35 3e 3c cc bf bd e4 d0 f5 bd
       0.16220191 0.17737156 -0.093651265 -0.12002733
000380 18 37 c7 be 56 6f 85 3e 4c 87 b3 bd 62 65 00 bf
       -0.3890922 0.26061505 -0.0876604 -0.501547
000390 1a 53 12 3e 4d d2 00 bf c0 10 57 bd c2 eb c4 be
       0.14289513 -0.50320894 -0.05250621 -0.3846112
0003a0 1a 17 50 bd 77 9c 96 3e 4c 83 92 be fc 07 e5 3c
       -0.05080328 0.29416248 -0.28615797 0.027957909
0003b0 5c 11 96 3e 7e 97 a8 3e 5d cd 80 bd d6 b3 49 be
       0.2931012 0.3292808 -0.0628917 -0.19697508
0003c0 23 60 0f be ed b7 69 bd 05 e0 bd 3e fb 5b 56 be
       -0.14001517 -0.05706017 0.37084976 -0.20933525
0003d0 2e cb 76 3d 41 e7 86 be 00 5a 80 3c 91 c9 bf be
       0.06025236 -0.26348308 0.015667915 -0.3745847
0003e0 1c fe 3c be 89 6a 57 3e 49 18 fd be c0 81 87 bc
       -0.1845631 0.21036734 -0.4943259 -0.016541362
0003f0 b7 2e 78 be d9 7b 80 3c fb 18 15 3d 5b 70 82 bd
       -0.2423657 0.015684055 0.036400776 -0.06369086

temporal_encoder.bias_ih_l0 f4 [96]
000000 99 6a 94 bc 38 60 b5 bd 0c 62 0a bd fe 7a 30 bd
       -0.018117236 -0.08856243 -0.03378491 -0.043086044
000010 b8 45 5f bd f3 62 c1 bc 51 b7 ba 3d dd d2 8c bd
       -0.05450985 -0.023606753 0.09116996 -0.068761565
000020 5c 42 58 3b fc 0e 25 3d cc 42 9b 3d 79 5a 3c be
       0.0032998538 0.040297493 0.075811 -0.18393888
000030 e8 b2 e6 3d a2 7f 49 3e 76 c9 c1 3d 0a b6 bb 3c
       0.112645924 0.19677594 0.09462254 0.022913951
000040 25 25 06 3e ec f6 2f be e7 9e 07 3e 79 24 87 3d
       0.13100107 -0.17184037 0.1324421 0.065987535
000050 85 83 38 be 57 5d 48 3c d0 a9 95 bc 41 bc 8c bd
       -0.1801892 0.012229285 -0.01826945 -0.06871844
000060 0f 3d 0c be 1d c7 0f 3e a1 78 86 be ff 40 4a bc
       -0.13695167 0.140408 -0.26263908 -0.012344598
000070 f1 e6 33 bd ce 26 91 bc dd c5 92 bd 50 d8 f2 bd
       -0.043921415 -0.017718699 -0.07166646 -0.118576646
000080 eb 0d cc bb 17 4c 3c bc d5 2a 2c 3d fd a1 e6 3d
       -0.006227245 -0.011492751 0.042033035 0.112613656
000090 e6 b8 c0 bc 96 87 8b 3d 69 7a 8a 3d 1a 5d c2 3d
       -0.023525666 0.0681297 0.06761629 0.09490414
0000a0 16 9b a9 bd b4 30 f9 3d 6c 8d 08 be b6 c8 35 3e
       -0.082815334 0.121674925 -0.13335198 0.17752346
0000b0 e2 15 06 3d 58 75 13 3d 86 50 41 3d 55 ca ae 3d
       0.032735713 0.03600058 0.047195934 0.085346855
0000c0 f2 be 8e 3d fa 4e 19 be 57 7a d9 bd 8f 9f 75 3d
       0.06970014 -0.14971533 -0.106190376 0.05996662
0000d0 cb 5e 6a bd 56 c9 fd 3d bb 41 03 be ac f7 b9 3c
       -0.057219308 0.123919174 -0.12818043 0.022701107
0000e0 33 00 54 bd 1c 25 bc bd 1f 6e 9b bd 58 18 1d 3e
       -0.051758002 -0.091867656 -0.07589363 0.15341318
0000f0 b4 dd dd 3d 44 ff dc 3d 20 94 47 3e 15 1a 75 3e
       0.10833302 0.107908756 0.19490099 0.23935731
000100 3b f4 2b be 2f ba 07 be c0 67 4f bc 52 e0 f0 bc
       -0.16792385 -0.13254617 -0.012659013 -0.02940384
000110 67 27 ec 3d 39 1e e0 3d 12 03 4b 3c 85 f7 9e 3d
       0.11530953 0.109432645 0.012390869 0.07762054
000120 98 2d 0b bd 68 71 42 be d0 0f 1a be 37 67 dd bd
       -0.03397903 -0.18988574 -0.15045094 -0.10810702
000130 ba 34 38 be a5 a9 45 bd ff d8 f1 bd 59 be f5 bd
       -0.17988864 -0.04825749 -0.11808967 -0.119991966
000140 63 a7 88 3d e4 f0 1d be df 15 20 3d 3d 2e 6e bd
       0.066725515 -0.15423924 0.039083358 -0.058149565
000150 24 a3 3e be 34 23 6a 3d 54 ac 06 bd 79 2a a5 bd
       -0.1861692 0.05716248 -0.03287919 -0.08064742
000160 f2 e4 8c bd b4 52 02 3e ad 2c c7 3d 09 f3 3c be
       -0.06879605 0.12726861 0.09725318 -0.18452086
000170 d4 90 b2 3d 91 e5 09 be 02 04 83 3d 48 6d 64 3c
       0.0871903 -0.13466479 0.06397249 0.01394207

temporal_encoder.bias_hh_l0 f4 [96]
000000 60 1e db bd 36 28 ad 3d 15 6d 2a 3e 74 25 26 be
       -0.10699153 0.08454935 0.16643174 -0.16225225
000010 02 4d 57 bd 9d 3f 73 3d f8 38 cf bd 91 4b 2e bd
       -0.052563675 0.05938684 -0.10118288 -0.042552534
000020 44 43 72 3c 95 4a 78 3d c4 00 b7 bd 1b 43 fc 3d
       0.014786545 0.060618002 -0.08935693 0.12317487
000030 c1 bd 0e bd bc 79 6f 3e 94 0e 46 be 57 8e 30 3d
       -0.034848932 0.23386282 -0.19341499 0.043104496
000040 87 27 22 3d 55 df c6 b8 87 ca fc bd 2a 6d dd bd
       0.039588477 -9.4829746e-05 -0.123433165 -0.10811837
000050 c2 fd ee 3d 6e 87 26 3e 99 96 0a be 5f 07 e3 bd
       0.11669494 0.162626 -0.13534011 -0.1108539
000060 58 d4 06 bd ac fc d7 3d ad 5e 21 3d 8a bb 3e be
       -0.03291735 0.1054624 0.03939693 -0.18626228
000070 0d b6 06 bd d7 aa f3 bd b3 bb 55 bd 1d 69 ee 3d
       -0.03288846 -0.118978195 -0.052180957 0.116411425
000080 12 7a b4 bd 42 31 a0 bd 75 d1 e2 3c 0e 17 04 be
       -0.088123456 -0.07821895 0.027687768 -0.1289942
000090 22 f3 04 be ac 7a 22 3e 55 a6 2f 3e 43 11 d4 3c
       -0.12983373 0.15867108 0.17153294 0.025887137
0000a0 cc c7 c6 3d 95 7b ba 3d 52 c2 00 be d9 6c 8b bd
       0.09706077 0.09105603 -0.12574127 -0.068078704
0000b0 9e 47 83 bd 5a aa 1c bc 18 2f a5 bb 2d f6 35 be
       -0.06410144 -0.009562099 -0.0050410144 -0.1776969
0000c0 22 02 96 3d a6 ee 08 3e 82 5a d5 bd bd 16 14 be
       0.073246256 0.13372287 -0.104176536 -0.14461799
0000d0 52 b0 e8 bd 71 ef 16 3e 5e ce 3f bc 0a 8c 3a 3d
       -0.113617554 0.14739777 -0.011706917 0.045543708
0000e0 cc d0 22 3e f7 b2 8f 3d 6d d2 2d 3e cd b2 28 3e
       0.15899962 0.07016557 0.16974802 0.16474457
0000f0 71 e4 59 3e 4c 43 5c 3e ea 13 8d bd 80 d8 a6 bb
       0.2127855 0.21510047 -0.06888564 -0.005091727
000100 fc ae 83 3e dd 2c e2 3d 57 ce 1a be 9e 2d 4b bd
       0.2571944 0.11043713 -0.15117775 -0.04960405
000110 6a 05 0c 3e 83 15 64 3d 04 4e 7a 3d 34 47 1f be
       0.1367394 0.055684578 0.061109558 -0.15554506
000120 c1 89 21 3e b0 10 31 3d f0 9a d5 be ca 5d 25 be
       0.15775205 0.043228805 -0.4171977 -0.16149059
000130 c5 79 e6 bd 30 5e 08 be 09 03 1f 3e 7d 84 98 bd
       -0.112536944 -0.1331718 0.15528502 -0.07447145
000140 ee 41 38 3e ed 96 e3 bd 55 5e c2 bd 39 58 fe bd
       0.179939 -0.11112771 -0.09490649 -0.12419171
000150 e5 8f 18 bd 88 a5 5e be 36 d8 90 3e 90 b2 5c be
       -0.037246604 -0.21742833 0.28289956 -0.21552491
000160 d5 05 20 be 24 5b 04 bb 7c 73 47 3c ba 3f 43 bd
       -0.15627225 -0.0020195926 0.01217353 -0.047668196
000170 c0 93 a4 3d 28 be 74 3d 1a d5 02 be 0c 51 16 be
       0.080359936 0.05975166 -0.12776604 -0.14679354

temporal_encoder.weight_ih_l0_reverse f4 [96, 240]
000000 c6 6d a3 3d d0 a9 71 3d ea 7e 1b 3e fa 3a cf 3d
       0.07979922 0.058999836 0.15185133 0.10118671
000010 4e 9a 2a 3e 45 71 18 3e 0b 02 5e bc 29 86 a9 3d
       0.16660425 0.14886959 -0.013550292 0.08277542
000020 6c 2d 84 bd e3 5c 28 3d 7d f9 6d 3d 29 73 87 3b
       -0.06453976 0.04110421 0.05809926 0.004133601
000030 5e b7 68 bd be 00 53 3d 9e 1b 50 3e 90 b6 f7 3c
       -0.056815498 0.05151438 0.20323035 0.03023842
000040 c9 74 8b 3d e3 5d cc 3d 5e e1 e9 bd a0 62 0e be
       0.068093844 0.09978845 -0.114199385 -0.1390481
000050 00 52 51 be 53 57 b4 bd 28 cd 91 3d 8c a0 42 bd
       -0.20441437 -0.08805718 0.071192086 -0.04751639
000060 19 7a 33 bd 6f ea 04 3e 0a 98 ae 3d 18 82 e1 ba
       -0.043817613 0.12980054 0.08525093 -0.0017204909
000070 26 06 57 3c 0a df a3 bd 59 76 c1 3d 2d ea 9c 3c
       0.0131240245 -0.08001526 0.09446401 0.019154632
000080 de 96 96 3a b3 9f 80 3d cf 9c dd 3a a6 b1 e6 3d
       0.0011489054 0.0628046 0.0016907695 0.112643525
000090 ff 09 b5 bd d7 2d b5 3d a1 3e be bc a6 19 7a 3d
       -0.08839797 0.08846634 -0.023223223 0.061059617
0000a0 32 b5 41 3c bb c8 0b 3d 4c 85 c1 bd ba a8 07 3d
       0.0118229855 0.03412698 -0.094492525 0.033119895
0000b0 c2 e2 5f 3d b2 ee b6 3d 52 71 f8 3d 74 a7 b4 3b
       0.054659612 0.08932246 0.12130989 0.005513126
0000c0 db 03 0c 3c 50 6c c9 3d 08 b2 80 3d 96 67 85 3d
       0.008545841 0.09835112 0.06283957 0.06513898
0000d0 fa 99 41 bd 00 44 dc 3b a2 86 42 bd 88 84 e4 bd
       -0.047265984 0.0067219734 -0.047491677 -0.11158091
0000e0 59 09 8f bd ca ca a9 3d 40 be 28 be 0b 7a ef bd
       -0.06984205 0.08290632 -0.16478825 -0.116932
0000f0 e5 44 8c bd 79 0b 7f bd 55 97 a7 bd 8c 32 a5 3d
       -0.06849078 -0.0622668 -0.08183161 0.08066282
000100 75 96 d3 bd b0 2c a7 bc a7 ed e1 bd 68 aa b4 bd
       -0.10331432 -0.02040705 -0.11031657 -0.08821565
000110 10 39 dc bd 84 05 b2 3d b7 82 ee bc b4 03 9b 3d
       -0.10753071 0.08692458 -0.029115064 0.07569066
000120 95 01 23 3d 91 15 1f bb 37 bb 49 3d a1 7c 40 be
       0.03979643 -0.002427433 0.049250808 -0.18797542
000130 6e b0 76 3e 5e 0c b0 3d 3b 9b 96 3d f9 db 60 3e
       0.2409074 0.08596109 0.073538266 0.21958913
000140 36 a9 1d be 2b b5 77 bd a9 5e 9e 3c 72 9d 1a be
       -0.1539658 -0.06047551 0.019332247 -0.15099123
000150 90 47 9d bd bb d6 8a 3d fb eb 13 bb f8 7d 24 3e
       -0.07679665 0.06779238 -0.0022571075 0.16063678
000160 6e 1e bf 3c 99 60 d0 bd d4 00 bb bd d3 37 85 bd
       0.02332994 -0.101746745 -0.09131017 -0.06504788
000170 0c 80 39 3d 53 a8 f8 bd 68 c9 c5 3c b9 ed 2a bc
       0.04528813 -0.1214148 0.02414389 -0.010432654
000180 f3 ed d8 bd e0 75 18 be e7 74 30 be 52 e2 6d bd
       -0.1059226 -0.14888716 -0.17232095 -0.058077164
000190 0b 85 a6 3d 19 a6 b1 3d 56 b0 28 bd 9a a3 3a 3d
       0.08130845 0.08674259 -0.041183792 0.04556618
0001a0 db 49 c1 bd 98 b8 60 3e b5 d9 49 3e 1a d5 61 3c
       -0.09437915 0.21945417 0.19711955 0.0137837175
0001b0 db af 84 3e 70 c9 82 be e5 90 a9 bd 2b a0 e7 bb
       0.25915417 -0.2554431 -0.082795896 -0.007068654
0001c0 00 b9 89 bb b2 a6 0d 3e 27 18 45 3a 8e 7a cb bd
       -0.004202962 0.1383312 0.00075185526 -0.09935485
0001d0 bf e1 a1 3d 1b 6b 8d bd 91 77 a8 bd 14 5d 48 3e
       0.07904386 -0.06905194 -0.082259305 0.19566756
0001e0 e3 2a 7c 3e ae 44 1d 3f 59 79 07 3f 1d 92 06 3e
       0.24625735 0.6143292 0.52919537 0.13141675
0001f0 37 ca 6a 3e d4 f7 3d 3d e3 eb 6a 3c 2d 5e e4 3d
       0.22928701 0.046378925 0.014338466 0.11150775
000200 9a 8d 99 3d d6 32 23 3d 63 6f 4d be ba 8b 89 bd
       0.074977115 0.039843403 -0.20062022 -0.06716104
000210 59 e3 08 bd 35 56 58 bc 09 a2 79 3e 76 2d 8c bc
       -0.03341994 -0.013204147 0.24378218 -0.017111521
000220 50 66 96 bc a0 36 ec bc 61 a5 90 3c 0f cc 8d 3d
       -0.018359333 -0.028834641 0.017656984 0.06923687
000230 96 0b 87 3e 07 a7 30 bd 20 1a 00 be f3 8c 0a bd
       0.26376027 -0.04312804 -0.12509966 -0.033825826
000240 ff 04 45 3d 4c 9a 56 3d d3 e5 c5 3c de d8 e0 bd
       0.048100468 0.052393243 0.02415744 -0.10978864
000250 a0 68 12 be ca b1 b6 3d 9e 22 e2 bd 60 d9 98 3c
       -0.14297724 0.08920629 -0.11041759 0.01865834
000260 38 21 c6 3b 59 8b 24 be dc e4 8a 3d 91 d9 a1 3c
       0.0060464405 -0.16068782 0.06781933 0.019757064
000270 c6 85 11 bd b9 f7 b2 bd c5 85 5a bd 67 51 e7 bc
       -0.035527967 -0.087386556 -0.05335023 -0.028237058
000280 66 d0 79 bd b5 4e 4b 3d ba 76 96 3c c8 0f 4a bd
       -0.06098976 0.049635608 0.01836716 -0.049331456
000290 4e a6 08 be c4 d1 e7 3d a5 5d 92 3e ff 39 73 3e
       -0.1334469 0.113193065 0.2858707 0.23752593
0002a0 5c 3e eb 3c 36 2b 63 3e 3f 97 bd 3c 73 e0 b6 bd
       0.028716259 0.22184452 0.023143409 -0.08929529
0002b0 f1 71 0d 3d 76 f6 8c bd a0 fb fe 3c 15 e5 dc bc
       0.03453249 -0.06882946 0.031125844 -0.026964704
0002c0 28 a7 16 bd 2e 9c 17 3e 16 e6 80 3e ae 21 8b 3d
       -0.036780506 0.14805672 0.25175542 0.06793533
0002d0 7c 8b 1d bf c4 13 0d bf fc 62 0f bf 71 22 0f 3e
       -0.6154096 -0.55108285 -0.56010413 0.13977982
0002e0 d5 be 68 3d c5 cb d3 3e c4 b8 cf bc 7e 8d 48 3d
       0.056822617 0.413664 -0.025356658 0.048963062
0002f0 65 3e 86 bd 96 c9 47 3d 61 7f e9 bc dc 76 80 3d
       -0.065548696 0.04877623 -0.028503122 0.062726706
000300 47 bf 92 bc e5 8f eb 3d 56 3b 95 3d bf 93 9a bb
       -0.017913474 0.11502055 0.07286708 -0.0047173197
000310 73 c7 1f 3d f3 c8 e9 3d a5 00 25 bc 55 8a e6 3d
       0.03900857 0.11415281 -0.010070954 0.112568535
000320 7b 2d 83 3d b8 cf 09 be 8e 27 db 39 ae fb 3f bd
       0.06405159 -0.13458145 0.00041800406 -0.04687088
000330 4c af 4e 3d 3f 54 05 3e ad 68 10 3e 18 af 23 3e
       0.050460145 0.13020419 0.1410243 0.15984762
000340 1a a2 3c 3e f7 58 f4 3d 1a e0 38 3e 7a 1b 93 3d
       0.18421212 0.11931031 0.18054238 0.07182975
000350 27 39 5d be 86 c8 a2 3d ab 60 03 3e 62 80 9c bd
       -0.21603833 0.07948403 0.12829845 -0.076416746
000360 47 27 59 bd 93 3d 1d be 94 9a 26 3d 44 95 80 3d
       -0.053015973 -0.1535552 0.04067476 0.0627847
000370 a6 2a 26 bd be 05 35 3b 54 4e 8a bc 39 cc 1e bc
       -0.040568016 0.002762183 -0.016883053 -0.009692245
000380 7a 48 6f bc b5 9f 9b 3e cb e9 8e bc cd 3b f6 3d
       -0.014604682 0.30395284 -0.017445466 0.12023125
000390 f5 d0 cd bd e8 ba b0 3d 99 3f 2e 3e fe a7 0b be
       -0.10049621 0.086293995 0.17016448 -0.13638303
0003a0 c4 97 3e 3c 15 f1 70 bd 15 92 2b be b7 df 35 bd
       0.011632863 -0.058823664 -0.16754945 -0.044402804
0003b0 76 45 e8 3a 58 3b 0d 3d f1 57 4d bd de b3 82 bd
       0.0017720896 0.034480423 -0.050132696 -0.06381963
0003c0 e4 1e 1c 3d c8 9f 67 be 5e e9 07 bc 0d d6 c7 bc
       0.038115397 -0.22619545 -0.008295385 -0.02439406
0003d0 35 c0 69 be fe 93 64 bd e0 d6 ad bd 51 ed 07 be
       -0.22827227 -0.0558052 -0.0848825 -0.13274123
0003e0 82 1a a3 bd db 85 8a 3d 7b 02 df 3c fd 25 33 3e
       -0.0796404 0.06763812 0.027222862 0.1749496
0003f0 42 ec a0 3e 49 7e 6a 3d 2e 1d 10 3d 77 ee b4 3e
       0.3143025 0.05724934 0.035184078 0.35338184

temporal_encoder.weight_hh_l0_reverse f4 [96, 32]
000000 f4 d5 bf be df 99 d0 bc 38 b9 ac be b5 62 c1 bd
       -0.3746792 -0.025463996 -0.3373506 -0.09442655
000010 e9 2e c8 bc ec 93 1a be 75 3e fa 3d 1f 4f af 3d
       -0.024436431 -0.1509549 0.12218944 0.08560013
000020 cb d7 61 bd c1 b4 8b 3e fc 98 9b 3d 88 36 b6 3d
       -0.055137437 0.27286342 0.07597539 0.0889712
000030 de 65 01 3e f1 e7 1b 3e 51 31 0c 3e de cd 28 be
       0.12636515 0.15225197 0.13690688 -0.16484782
000040 7b 9d 8c be d3 49 18 3e f6 a6 6e bd eb 67 cf bd
       -0.27463898 0.14871912 -0.058264695 -0.10127243
000050 2b c6 18 3e 06 47 97 bd 9a 4a 55 bc a1 d3 a9 bd
       0.14919345 -0.073865935 -0.013018275 -0.08292318
000060 bc 7a 4e be 88 dd f8 3d 8b 1c 18 be b5 a9 8d 3e
       -0.20164007 0.12151629 -0.14854638 0.2766854
000070 59 ce 61 3e 2c 1e 02 be 66 93 e3 3d ca a0 f7 3d
       0.22051372 -0.12706822 0.111120984 0.12091215
000080 51 44 00 be 20 b2 d6 3e ab e5 2c bc 08 be 6b 3d
       -0.1252606 0.41932774 -0.010552804 0.057554275
000090 32 1d 84 3e 0c 9b a2 bd 3d 0f e6 bd 0f 99 30 3e
       0.25803524 -0.07939729 -0.11233375 0.17245887
0000a0 4e bb 1a 3d e9 ac 23 3e 57 07 da bc e6 f8 21 3e
       0.037776284 0.15983929 -0.026614828 0.15817603
0000b0 c8 59 43 bd c3 ad a5 bd c6 be 85 3e 2b 93 94 be
       -0.047693044 -0.08089783 0.2612211 -0.2901853
0000c0 e0 f3 2a 3e d9 72 cd bc 96 78 bb be 54 06 8b be
       0.16694593 -0.025079178 -0.36615437 -0.27153265
0000d0 33 08 16 3e d7 5e 92 be 4f 28 be 3d 96 8c ad be
       0.14651565 -0.28587982 0.09285032 -0.3389632
0000e0 89 7b f6 3d 9f 6e 46 3b 57 4e e6 3d a3 17 08 3d
       0.12035281 0.0030278338 0.11245411 0.033225667
0000f0 31 12 8c 3e 43 ac f4 3e 56 93 05 3e d9 9d 0e 3e
       0.2735763 0.47787675 0.13044485 0.13927402
000100 6b ad 5b be 39 3f e9 3d 96 f6 6d 3e 4a f1 8e bd
       -0.21452872 0.11389012 0.23238596 -0.06979616
000110 d5 1f 53 bd 55 72 b5 bd 31 59 a3 be fe d6 44 bd
       -0.05154403 -0.08859698 -0.31903985 -0.048056595
000120 f3 a8 87 3c 87 90 1d be 36 d8 fa bd b4 3f 24 be
       0.016560053 -0.15387164 -0.1224827 -0.16039926
000130 18 4d 28 bd 6f 22 23 3d d9 4e 0e be 0c 21 49 bd
       -0.041089147 0.03982776 -0.13897265 -0.04910378
000140 c1 a8 70 be b2 52 9c be 4f 87 70 3c c6 b4 40 be
       -0.23501875 -0.30531842 0.014680698 -0.1881896
000150 11 2f 9a bc 26 c7 a3 bd a7 eb 50 bd 8f 2f 4a 3d
       -0.018821271 -0.07996969 -0.051005986 0.04936176
000160 da 1d 05 3e ae 92 f1 3d 0d f1 b1 bd ec 10 07 3d
       0.12999669 0.11795555 -0.08688555 0.032975122
000170 f1 3d f2 bd cc 12 f5 3a 36 e1 0d be 38 98 55 ba
       -0.11828221 0.0018697619 -0.13855442 -0.00081479875
000180 56 69 56 bc 49 4b e8 bd 2e d7 de 3d c7 1f 63 be
       -0.0130866375 -0.113424845 0.10880886 -0.22180091
000190 ce cb f2 bd 58 55 4c be ef 2d 71 3d 6c a3 91 bd
       -0.11855279 -0.19954431 0.058881696 -0.071112484
0001a0 14 7e a7 3d af bd 1c 3e 2b 63 32 be 22 61 a4 3e
       0.08178344 0.15306734 -0.17420642 0.32105356
0001b0 5b 32 e0 3d 95 ab a4 3c 80 bf aa be 6b 46 15 3e
       0.109471045 0.020101348 -0.33349228 0.14577644
0001c0 66 75 12 be c3 3c 04 3e 8a 13 42 bd 55 dd 8b bd
       -0.14302596 0.12913804 -0.047381915 -0.06829325
0001d0 bf 83 3d be b7 e9 85 be 59 03 d2 3c ca 47 e1 3a
       -0.18507288 -0.26154873 0.025636362 0.0017187533
0001e0 6c df b8 bd 12 07 15 3d 79 81 88 be 6e 51 91 bc
       -0.09026989 0.036383696 -0.2666128 -0.017739024
0001f0 c5 cd 86 bc 35 75 98 3d 4c 72 59 3e 78 37 f3 3c
       -0.01645554 0.074442305 0.21235007 0.029689535
000200 54 7d 13 bd a3 9c 9c 3d 3a 38 15 3e 96 f8 04 be
       -0.036008194 0.076470636 0.1457223 -0.12985453
000210 f0 86 24 3f 7e cf 60 3b 8f 91 5c 3d 5c 76 9e bd
       0.642684 0.0034303362 0.053849753 -0.07737419
000220 fd d5 e2 3c a0 e4 de be a4 68 03 3e c6 36 ef 3c
       0.027689928 -0.43533802 0.12832886 0.029200923
000230 85 0c a2 3d 7c c4 36 3e 02 23 bb 3d 7e 31 88 be
       0.07912544 0.1784839 0.091375366 -0.2660026
000240 9f 3f 93 be 86 5d 86 3e 41 12 bf be fe 84 ce bc
       -0.28759477 0.26243228 -0.37318614 -0.0252099
000250 5a 99 90 3e a3 5a 45 3e 82 ba 3e 3e f0 31 e6 3d
       0.28241998 0.19272856 0.18625835 0.112399936
000260 61 27 98 3d 8f cb 34 3e 0a 34 9a be e6 ff 29 be
       0.07429386 0.17655776 -0.30117828 -0.16601524
000270 71 67 58 3d 0b 2e ac bd 4a 0c 30 3e 55 52 df 3c
       0.052833024 -0.084072195 0.17192188 0.027260939
000280 86 32 71 3d 8e ae 8e bd 1c 86 28 3e ac 5b 2d 3e
       0.058886074 -0.069668874 0.16457409 0.16929501
000290 43 be df 3b 0c 9b c8 3d d2 7e 5f 3d dd 6a d7 bd
       0.006828101 0.09795198 0.054564305 -0.105184294
0002a0 b3 af 4b bc 4b ec f2 3d 7e 39 10 3e 65 88 30 be
       -0.012432027 0.118614756 0.14084432 -0.1723953
0002b0 3f 2a 76 3e 0e ad bb 3d a7 dd 8b 3d e2 1f 0b 3e
       0.24039553 0.09163867 0.06829386 0.13586381
0002c0 3b c1 56 be e6 32 bc bd 2e 28 84 3e 66 12 1f 3d
       -0.20972149 -0.091893956 0.25811905 0.038835905
0002d0 37 b8 82 be e6 fe 38 be 27 5f d1 3d f6 4a 82 be
       -0.2553117 -0.18065986 0.10223227 -0.25447816
0002e0 53 af 3a 3e 81 2f b7 3d a0 83 cc bd fc db 47 be
       0.18230943 0.089446075 -0.09986043 -0.19517511
0002f0 24 d9 2b 3e 5e 4d 08 bd 23 6c 67 3e 05 80 b7 be
       0.16782051 -0.033276908 0.22599845 -0.3583986
000300 aa ef eb bd 95 7b 8b bc 19 04 7c be 8e e4 98 3d
       -0.11520322 -0.017026702 -0.24610938 0.07465468
000310 eb 30 89 3e 5d bb 83 be 29 fc 6c 3e 3e 30 52 3b
       0.26795134 -0.25728884 0.23143066 0.0032072212
000320 8a 22 ad 3c cd 90 8a be 6b ce 8f bd bd b4 c6 b9
       0.021134634 -0.270636 -0.07021793 -0.00037900163
000330 9b e4 d4 3d 2c 60 1a bb 01 da 14 be 58 42 f6 3d
       0.103951655 -0.0023555858 -0.14536287 0.12024373
000340 d3 7e 18 be c8 84 48 be 80 38 12 ba fd 19 f2 3d
       -0.1489213 -0.19581902 -0.0005577877 0.11821363
000350 f5 62 3d 3d bc e7 1f be 1a f7 8a bd 20 3a 0b 3e
       0.04623695 -0.15615743 -0.06785412 0.13596392
000360 04 8c 05 bc 8e 8c a2 bc f9 29 88 3e c1 78 09 3e
       -0.008151058 -0.019842412 0.26594523 0.1342497
000370 41 5f 14 bc 9b 70 bc bd db 2a 24 be 36 68 d9 3d
       -0.009055913 -0.09201165 -0.16031973 0.1061558
000380 cd dd b9 3d e6 d1 9c be 1a 0f fd bd c6 43 82 be
       0.09075508 -0.3062889 -0.12356396 -0.25442332
000390 63 c4 c0 be ee 81 6d 3e e6 1a 54 bd 24 45 2e bc
       -0.3764983 0.23194095 -0.051783465 -0.010636602
0003a0 17 e0 07 be 9c 25 4c be 25 35 44 3d 7c 5d 79 be
       -0.13269077 -0.19936222 0.047902245 -0.24352068
0003b0 e5 c8 93 bd 95 d5 bc bd 3b 2e 15 be 2a 71 0a be
       -0.07216052 -0.09220425 -0.14568417 -0.13519731
0003c0 f1 12 e9 3d c6 5b d1 3e 90 e7 79 3e 71 63 be 3e
       0.11380566 0.4089033 0.2440474 0.37185243
0003d0 03 11 56 3e 72 76 07 be 90 dc 87 be eb 54 56 3e
       0.20904927 -0.13228777 -0.26535463 0.20930831
0003e0 b0 fe d6 3d 76 c3 48 3e 5c 31 17 be b2 c9 3a be
       0.104977965 0.19605812 -0.14764923 -0.18241003
0003f0 25 21 10 3e a9 11 eb 3d ee 8d f1 3c 43 16 86 3d
       0.14075144 0.11477978 0.029486623 0.06547215

temporal_encoder.bias_ih_l0_reverse f4 [96]
000000 77 7f 17 3d 50 f7 91 bd b7 b7 82 bd f0 3c 8b bd
       0.036986794 -0.07127249 -0.06382697 -0.06798732
000010 99 2d 5c be 58 70 bb bc 58 9f e9 3d 7c c6 82 bc
       -0.21501769 -0.022880718 0.114073455 -0.015963785
000020 fe c9 47 3e 76 6d 3d be 2d 3b ae bd 7c 27 06 be
       0.19510648 -0.18498787 -0.08507381 -0.13101
000030 9b 59 2b 3d 86 23 14 be 48 d2 f2 bd dd 53 67 bd
       0.0418335 -0.14466676 -0.11856514 -0.056476463
000040 8c 2d 29 be bd 70 93 3d 37 2e 6b be 6a 58 30 be
       -0.16521281 0.071992375 -0.22966848 -0.17221227
000050 d1 b8 01 3e 44 d3 0b be 96 dc 1b 3c 7c 52 b0 b9
       0.12668158 -0.1365481 0.009513041 -0.00033630792
000060 9c b6 c1 3d 38 8c bd bd 10 4d 0d bd cb cd 2f be
       0.09458658 -0.0925526 -0.03449732 -0.17168348
000070 70 ec 96 bd c7 e9 7f bb 50 98 d1 bd d7 d1 5b bd
       -0.073693156 -0.0039049254 -0.102341294 -0.053666916
000080 ea c6 0c be ba fd f4 3d 8b 63 6c 3e 28 91 e8 bd
       -0.13747755 0.11962457 0.23084848 -0.11355811
000090 ed 19 8c bd 6c 77 d4 bd 14 03 2d bb 49 b8 43 3e
       -0.068408825 -0.103743404 -0.002639954 0.19113268
0000a0 1e bf 78 bc ee d3 7a 3e f8 03 46 3e 05 23 19 be
       -0.015182285 0.24494907 0.19337451 -0.14954765
0000b0 47 5a fa bc f9 ce c4 3d fa 5b 34 3e c0 74 14 bd
       -0.030560626 0.096097894 0.17613211 -0.036244154
0000c0 a5 67 b4 3c df ca 44 3c 2a ce 91 bd 39 8f db 3d
       0.022022078 0.012011259 -0.07119401 0.10720677
0000d0 b8 79 25 3e e1 cb c0 3a da a5 01 bd 7f 6c 06 3e
       0.16159713 0.0014709198 -0.03165231 0.13127325
0000e0 fa 25 4c 3e ac c8 59 3e 81 3a 3c bc 95 39 73 3b
       0.19936362 0.21267956 -0.011488558 0.003711318
0000f0 b1 1e 3b 3e a0 20 1a bd fc b4 0f bd 64 f9 55 3e
       0.18273427 -0.03762877 -0.03508471 0.20895916
000100 cd 5b fd bd fe 6c ab bd 8f 90 0e be 58 7e 93 bc
       -0.12371025 -0.08370398 -0.13922332 -0.018004581
000110 1a ff 41 3d 66 c2 34 3e f0 bd 69 bd 84 64 29 bd
       0.047362424 0.17652282 -0.057065904 -0.041355625
000120 06 fb e0 bb a9 9a fc 3d 18 07 27 be e6 1d 8f bd
       -0.006865862 0.123341866 -0.163113 -0.069881245
000130 c8 9c 5d 3d 5b 89 00 3e 02 55 3f be cb 0f f0 3d
       0.054104596 0.12552397 -0.18684772 0.11721762
000140 68 64 1e 3e ed c2 eb 3d 71 43 76 bc 5b 52 fd bd
       0.1546799 0.115117885 -0.015030728 -0.12369224
000150 c5 45 c8 bd 80 58 87 bd 38 43 2c 3e e5 16 eb bd
       -0.097789325 -0.06608677 0.16822517 -0.11478976
000160 6d 26 6b be f8 19 3b 3d 82 4a 8f bb dd d9 cf 3c
       -0.22963877 0.045679063 -0.0043728957 0.02537244
000170 8d 2e 1c 3d 89 c8 55 3d 65 07 2a 3e e4 49 03 be
       0.03813033 0.0521932 0.16604383 -0.12821156
