models/saved_models/train_240_best_model.pth (torch, 239010 bytes, 24 tensors)

cnn.0.weight f4 [8, 1, 3, 3]
0.11470692 0.14673153 0.029883068 -0.17247963 -0.20343524 -0.13548142 0.07011964 -0.34608048
-0.42042652 -0.09622986 -0.010358545 0.036572993 -0.08804919 0.6221449 0.30436763 -0.09696058
-0.121181294 -0.043290053 -0.3362178 -0.19165887 -0.14067043 -0.021464227 -0.1282609 0.043196164
-0.20201291 -0.086592086 0.38337037 0.10137876 0.21997604 -0.06566343 0.16060777 -0.10779258
0.5926673 0.055271175 0.0974923 0.20543066 -0.068779066 -0.07148835 -0.018795023 0.27910382
0.21353242 0.20745087 0.042786207 0.5232537 0.40606454 -0.11281551 -0.09308668 -0.013642294
-0.30359793 0.21668799 -0.20857097 -0.62252575 -0.19886489 -0.0063502304 0.051552933 0.049708933
0.03761715 -0.015334595 0.82489014 -0.14251636 0.16263205 -0.10376729 -0.03128565 -0.035498466
-0.05181542 -0.08502119 -0.06209997 0.4364528 -0.05298876 0.29654825 -0.033249576 -0.013046418
00000000: 76eb ea3d ca40 163e 56cd f43c 809e 30be
00000010: 5451 50be a4bb 0abe e39a 8f3d 7631 b1be
00000020: 2542 d7be 2914 c5bd e3b6 29bc 90cd 153d
00000030: 2253 b4bd e344 1f3f 13d6 9b3e 4593 c6bd
00000040: e62d f8bd e950 31bd bd24 acbe 3942 44be
00000050: e90b 10be bfd5 afbc d356 03be 76ee 303d
00000060: 79dc 4ebe 3157 b1bd 1f49 c43e ab9f cf3d
00000070: 6641 613e 8c7a 86bd 5d76 243e 5bc2 dcbd
00000080: 0bb9 173f 0764 623d 0baa c73d 6a5c 523e
00000090: 0adc 8cbd 7c68 92bd 05f8 99bc b2e6 8e3e
000000a0: 3ea8 5a3e 006e 543e 9740 2f3d f4f3 053f
000000b0: b1e7 cf3e d10b e7bd 3ba4 bebd ee83 5fbc
000000c0: 3071 9bbe 75e3 5d3e a193 55be d95d 1fbf
000000d0: 3da3 4bbe 9815 d0bb 2b29 533d 989b 4b3d
000000e0: 7114 1a3d f43d 7bbc 002c 533f cfef 11be
000000f0: 0489 263e f283 d4bd 6225 00bd d766 11bd
00000100: 683c 54bd 971f aebd 8a5c 7ebd be76 df3e
00000110: be0a 59bd 2cd5 973e b530 08bd a5c0 55bc

cnn.0.bias f4 [8]
0.09215332 0.30954564 0.19179374 0.30071932 0.07538152 -0.13444784 -0.21171375 0.28530318
00000000: e1ba bc3d c47c 9e3e 9465 443e e2f7 993e
00000010: a061 9a3d b2ac 09be 7dcb 58be 4213 923e

cnn.1.weight f4 [8]
1.0242667 0.96536887 1.0351701 0.9107202 0.9161377 0.99606484 1.0176446 0.9597881
00000000: 2c1b 833f 6a22 773f 7480 843f f624 693f
00000010: 0088 6a3f 1bfe 7e3f 2e42 823f acb4 753f

cnn.1.bias f4 [8]
-0.13172008 -0.22300738 -0.24163629 -0.3982695 -0.18382919 -0.21663535 -0.26144475 -0.19893776
00000000: a1e1 06be 0c5c 64be 816f 77be fbe9 cbbe
00000010: b83d 3cbe a8d5 5dbe 16dc 85be 57b6 4bbe

cnn.1.running_mean f4 [8]
-0.10951893 0.44385365 0.023853727 0.57842934 0.4155357 -0.4129342 0.0041043665 0.3828171
00000000: 764b e0bd c940 e33e e468 c33c f213 143f
00000010: 18c1 d43e 1d6c d3be ec7d 863b 9a00 c43e

cnn.1.running_var f4 [8]
0.074638434 0.040345818 0.047319572 0.08940786 0.15594342 0.10736732 0.06346347 0.021086276
00000000: 09dc 983d a841 253d 2bd2 413d 781b b73d
00000010: a2af 1f3e 66e3 db3d 23f9 813d 20bd ac3c

cnn.4.weight f4 [16, 8, 3, 3]
0.060206864 0.033738546 0.029044416 -0.07951397 0.023100037 0.028435651 -0.1264213 -0.117766574
-0.16148774 -0.04350427 -0.15761577 -0.060443062 0.049606394 0.16154502 0.11320566 0.08669381
-0.01839232 -0.050928686 0.07734632 0.17622826 0.1139232 -0.022003723 -0.010532254 -0.07614668
-0.12718993 0.01817595 -0.027422464 0.024932664 -0.066341005 -0.074309446 0.054086994 -0.04121898
0.08647023 -0.14914085 -0.07369483 -0.09033479 -0.03928123 0.12417504 -0.105531834 0.035105094
0.023595873 -0.021263443 -0.087952115 -0.08495973 0.06290164 0.13072829 -0.0733436 0.03256719
-0.01970901 0.07800408 -0.018701103 -0.062902465 -0.02248378 -0.042263303 0.042452607 -0.028120648
0.008525366 0.102073506 0.023617133 0.07170202 -0.11759689 -0.1246903 -0.08991701 0.104497425
0.18179701 0.09575473 0.12067739 0.06649876 0.026760228 -0.029267158 -0.0777269 -0.0022361414
-0.016908338 0.21074541 0.15109566 0.16015624 0.18470755 -0.03605587 0.12860663 -0.089737974
-0.15755355 0.018317677 0.07087179 -0.017304476 -0.049967952 0.1474172 0.06034584 -0.01950928
-0.039573215 0.01213269 -0.05783779 0.016417123 0.0117121935 0.10002458 0.1616708 0.08978651
0.056675687 0.011502214 -0.05645537 -0.008061473 0.09663309 -0.0073014973 0.059039578 0.18575077
0.071604036 0.10066409 0.014298112 0.0019476361 -0.014906514 -0.005372444 0.0018574267 0.019301163
0.17086944 -0.025302552 0.105685554 -0.078824736 -0.059192672 0.021013469 0.08254173 0.06477415
-0.034257963 0.19018477 0.00026856243 -0.029932529 0.14477228 0.06950652 -0.12216074 -0.014110997
0.014539387 -0.03617161 0.070778556 0.05042488 0.03726921 -0.05822561 0.0057272087 -0.08598219
0.022774667 0.02075519 0.06232682 0.19024317 0.0769936 -0.061182246 0.08680438 -0.12005508
-0.007327065 0.057861444 -0.018880187 -0.17456289 -0.23569542 -0.10527379 -0.066404484 -0.002466307
0.03426038 0.09811968 0.13167207 -0.09859741 -0.06995632 -0.032809753 0.09731343 -0.124803245
-0.082725056 -0.08840139 0.01857174 0.04257239 -0.16455615 0.021535309 -0.066452205 0.05011479
0.03607796 0.0057658628 0.08019764 0.021503558 0.014202687 -0.09382646 -0.0072562294 -0.08876252
0.13682419 -0.08263702 -0.15616801 -0.0036763558 0.09021498 -0.018169424 -0.021877602 0.027676987
-0.04935305 0.022633778 0.12836565 -0.016345715 -0.02845395 -0.06429329 -0.10211938 0.11776143
-0.0034252792 -0.24186128 0.0149798505 0.020035792 0.046196293 -0.2023775 -0.016220478 0.2558731
-0.06022716 -0.055464473 -0.016327742 0.15811627 -0.013726985 -0.10622822 0.019993838 -0.047525734
0.0131958015 -0.02530223 -0.06373432 -0.07634316 0.1030982 0.12675747 -0.07562368 -0.14180282
0.03981952 -0.008453058 0.04505788 -0.047166508 -0.12127258 0.055429894 0.0900161 -0.015521173
0.06888599 -0.061694544 -0.11313464 -0.1054635 -0.15119599 -0.024402304 -0.100135244 -0.010349839
0.04538243 0.08648552 -0.118839875 -0.016200123 0.20808777 -0.10691082 -0.1292108 0.08243695
0.13021833 -0.000897696 0.059758548 0.0010580282 0.06787296 0.022488877 -0.082672775 -0.06359021
0.011894243 0.16449006 -0.013224432 -0.0653876 0.11610788 0.016198866 -0.002649302 -0.1775706
00000000: 799b 763d 6e31 0a3d 8eee ed3c 38d8 a2bd
00000010: 4a3c bd3c e2f1 e83c 9674 01be 9a2f f1bd
00000020: 0b5d 25be 8931 32bd 0766 21be 2593 77bd
00000030: 1330 4b3d 0f6c 253e 5ed8 e73d 868c b13d
00000040: 7eab 96bc 999a 50bd bf67 9e3d 2e75 343e
00000050: 9150 e93d 2741 b4bc 7a8f 2cbc caf2 9bbd
00000060: 143e 02be bbe5 943c 13a5 e0bc 963f cc3c
00000070: cbdd 87bd 8d2f 98bd 538a 5d3d 3cd5 28bd
00000080: 4e17 b13d 61b8 18be 51ed 96bd 7201 b9bd
00000090: 5be5 20bd 7c4f fe3d 1321 d8bd 5cca 0f3d
000000a0: 224c c13c ac30 aebc 3d20 b4bd 5eff adbd
000000b0: 93d2 803d a3dd 053e 2b35 96bd 2c65 053d
000000c0: ca74 a1bc 9ac0 9f3d 0e33 99bc 02d3 80bd
000000d0: e72f b8bc 491c 2dbd c9e2 2d3d 465d e6bc
000000e0: faad 0b3c ea0b d13d b878 c13c 82d8 923d
000000f0: a3d6 f0bd a15d ffbd 6926 b8bd bf02 d63d
00000100: ff28 3a3e 0e1b c43d b525 f73d 8030 883d
00000110: 4438 db3c aec1 efbc 482f 9fbd 3a8c 12bb
00000120: 5b83 8abc a5cd 573e d2b8 1a3e ffff 233e
00000130: fa23 3d3e 52af 13bd 75b1 033e 8bc8 b7bd
00000140: b855 21be f40e 963c 3b25 913d 1ec2 8dbc
00000150: 32ab 4cbd 89f4 163e 332d 773d edd1 9fbc
00000160: 8617 22bd 31c8 463c 52e7 6cbd 347d 863c
00000170: 80e4 3f3c b0d9 cc3d 088d 253e fde1 b73d
00000180: c424 683d c873 3c3c bf3d 67bd 4514 04bc
00000190: 92e7 c53d 6641 efbb 7cd3 713d 7335 3e3e
000001a0: 23a5 923d f928 ce3d a142 6a3c d347 ff3a
000001b0: 743a 74bc 540b b0bb e674 f33a 791d 9e3c
000001c0: 66f8 2e3e 4c47 cfbc ab71 d83d dd6e a1bd
000001d0: 0474 72bd 7024 ac3c a30b a93d 4fa8 843d
000001e0: 1452 0cbd ccbf 423e d7cd 8c39 1035 f5bc
000001f0: 2f3f 143e 6f59 8e3d 692f fabd d031 67bc
00000200: 9c36 6e3c af28 14bd 59f4 903d 528a 4e3d
00000210: 99a7 183d fa7d 6ebd 4fab bb3b 6e17 b0bd
00000220: f091 ba3c ca06 aa3c 684a 7f3d 1bcf 423e
00000230: d2ae 9d3d 3c9a 7abd 7fc6 b13d 70df f5bd
00000240: e017 f0bb 1f00 6d3d 9faa 9abc 9dc0 32be
00000250: 245a 71be c999 d7bd 13ff 87bd c4a1 21bb
00000260: 9d54 0c3d f9f2 c83d 0bd5 063e 70ed c9bd
00000270: 4245 8fbd 8563 06bd 434c c73d d898 ffbd
00000280: c16b a9bd ca0b b5bd c323 983c 6360 2e3d
00000290: 6881 28be d16a b03c 1818 88bd 2b45 4d3d
000002a0: 7cc6 133d 90ef bc3b a93e a43d 3b28 b03c
000002b0: 63b2 683c 1628 c0bd aac5 edbb 20c9 b5bd
000002c0: a41b 0c3e 993d a9bd 82ea 1fbe 04ef 70bb
000002d0: a2c2 b83d 0bd8 94bc a838 b3bc d9ba e23c
000002e0: 6c26 4abd 796a b93c 4972 033e 73e7 85bc
000002f0: 4218 e9bc 33ac 83bd f723 d1bd e82c f13d
00000300: a67a 60bb 7caa 77be 0c6e 753c 1a22 a43c
00000310: 5338 3d3d 0c3c 4fbe cfe0 84bc cd01 833e
00000320: c1b0 76bd b72e 63bd c2c1 85bc 3be9 213e
00000330: 26e7 60bc 2e8e d9bd 1eca a33c 58aa 42bd
00000340: 3433 583c 9f46 cfbc 2487 82bd cd59 9cbd
00000350: 2625 d33d b6cc 013e 97e0 9abd c234 11be
00000360: cb19 233d b27e 0abc 9d8e 383d ab31 41bd
00000370: c25d f8bd 750a 633d 5c5a b83d 854c 7ebc
00000380: 1914 8d3d 6bb3 7cbd 22b3 e7bd 3ffd d7bd
00000390: 1fd3 1abe 57e7 c7bc b513 cdbd 5f92 29bc
000003a0: ede2 393d 521f b13d 5262 f3bd 1fb6 84bc
000003b0: f614 553e 0ff4 dabd d64f 04be b4d4 a83d
000003c0: f457 053e 5c53 6bba 61c5 743d 89ad 8a3a
000003d0: fa00 8b3d 983a b83c 5850 a9bd 963b 82bd
000003e0: 12e0 423c 1570 283e 4aab 58bc efe9 85bd
000003f0: f8c9 ed3d 7cb3 843c e99f 2dbb 11d5 35be

cnn.4.bias f4 [16]
-0.010357849 -0.098766804 -0.12563504 -0.0149051035 0.0070675383 0.017281061 0.017282592 -0.078942634
-0.054749075 0.06527591 0.03307269 -0.038152203 0.0063651144 0.015107364 -0.007412715 0.01418435
00000000: f8b3 29bc 4046 cabd 79a6 00be 8934 74bc
00000010: cf96 e73b 0391 8d3c 3994 8d3c adac a1bd
00000020: 9140 60bd 60af 853d 3b77 073d 7c45 1cbd
00000030: 7392 d03b e184 773c 5ce6 f2bb 7a65 683c

cnn.5.weight f4 [16]
1.231197 1.159147 1.3032246 1.0717949 1.2998543 1.2766716 1.1969225 1.1049044
1.0941597 1.1782706 1.2977618 1.1678501 1.241609 1.1241192 1.1851524 1.1509551
00000000: dd97 9d3f ee5e 943f 10d0 a63f 9330 893f
00000010: a061 a63f fa69 a33f c234 993f 826d 8d3f
00000020: 6d0d 8c3f 92d1 963f 0f1d a63f 1d7c 953f
00000030: 0bed 9e3f 23e3 8f3f 13b3 973f 7f52 933f

cnn.5.bias f4 [16]
0.027649062 -0.060778648 -0.023017209 -0.044945408 0.03651967 0.064151205 -0.010207037 -0.09156538
-0.005969444 -0.055269342 0.017792685 0.010194036 0.017265309 -0.046707075 -0.0027320525 0.051700268
00000000: 4980 e23c 08f3 78bd 968e bcbc ad18 38bd
00000010: a695 153d b561 833d 6b3b 27bc a186 bbbd
00000020: 539b c3bb 1b62 62bd f7c1 913c e304 273c
00000030: fa6f 8d3c eb4f 3fbd 3c0c 33bb a9c3 533d

cnn.5.running_mean f4 [16]
0.01981622 0.9453776 -0.59246117 -0.7364776 -0.8179045 1.011605 -0.5228648 0.51023716
0.6438794 0.40330538 0.80703074 -0.5545244 -0.92333364 -0.04023384 0.2742547 0.0162957
00000000: a055 a23c 4404 723f 89ab 17bf cc89 3cbf
00000010: 3062 51bf 467c 813f 78da 05bf e79e 023f
00000020: 48d5 243f 0b7e ce3e 9199 4e3f 50f5 0dbf
00000030: 985f 6cbf 3dcc 24bd 1d6b 8c3e 8f7e 853c

cnn.5.running_var f4 [16]
0.19987322 0.17417318 0.11236234 0.31237417 0.16589305 0.12096539 0.13199338 0.37110505
0.28729677 0.1477276 0.12686759 0.24969475 0.099570654 0.12919948 0.18191734 0.24052866
00000000: 91ab 4c3e 745a 323e 3a1e e63d 82ef 9f3e
00000010: dedf 293e b4bc f73d 4629 073e 7b01 be3e
00000020: 9018 933e e745 173e 94e9 013e fbaf 7f3e
00000030: b3eb cb3d de4c 043e 8a48 3a3e 254d 763e

temporal_encoder.weight_ih_l0 f4 [96, 240]
0.06683942 0.09350492 0.056123942 0.050106477 0.107395515 0.093389764 0.009341446 0.021609453
0.008795958 0.018862009 0.02709236 0.022491787 0.03577804 0.041069124 0.043567613 0.045175433
0.04304296 0.03696403 0.0029593657 0.10761613 0.021583958 0.027021876 0.08157191 0.025650455
0.0028201349 0.024628479 0.005771208 0.045049697 0.012484606 0.0096393 0.09473675 0.06448396
0.056034893 0.029996958 0.04526591 0.06479914 0.05594711 0.029770775 0.09864619 0.007054827
0.016291363 0.031220982 0.119804606 0.056227423 0.042180363 0.030145701 0.008836406 0.014156421
0.033441883 0.014095823 0.0379551 0.10652097 0.11219087 0.072509035 0.08569623 0.1263601
0.053538915 0.06949987 0.05970573 0.064156555 0.06072523 0.11529965 0.06514836 0.092065245
0.114386514 0.1090842 0.08738702 0.03692024 0.043748733 0.071198344 0.065417826 0.06270513
0.06749685 0.02541828 0.07251203 0.025354031 0.040271692 0.0339445 0.044874646 0.059904628
0.038309883 0.06645166 0.12569477 0.03498951 0.018083181 0.09105952 0.01716813 0.041754168
0.10232935 0.030252758 0.08367389 0.05518979 0.03923777 0.08826294 0.13529055 0.1415347
0.10457846 0.019399524 0.040906083 0.09582101 0.03177607 0.063881695 0.07003851 0.03179902
0.04969245 0.06799492 0.042232882 0.022315959 0.01807837 0.026639707 0.11118949 0.005240067
0.004926789 0.00066411396 0.021126525 0.010901026 0.019779366 0.009507177 0.00019017093 0.009077089
0.046779063 0.079664595 -0.036951523 0.11291197 0.09967931 0.111851126 0.027596485 0.016972614
0.0016047801 0.016435301 0.04010347 0.04852389 0.075849034 0.026603932 0.025298372 0.04675533
0.08526956 0.016266385 0.038730074 0.055996466 0.01031251 0.01817877 0.042161226 0.020674936
-0.0032126033 0.040295977 0.0047626635 0.041955624 0.037061304 0.026291998 0.029401116 0.12930225
0.03432099 0.026030617 0.0585807 0.047278304 0.0701811 0.04963185 0.022520643 0.008879168
-0.007614721 0.006518117 0.02509857 0.0085734315 0.040852472 0.048565738 0.041083038 0.03689294
0.01788371 0.016715653 0.070977956 0.10576334 0.11006017 0.108968526 0.15561375 0.067445375
0.046373047 0.108436994 0.07346508 0.060626436 0.089219496 0.06273517 0.078980476 0.06339335
0.047776945 0.063642986 0.08708852 0.041278087 0.058521383 0.06963404 0.094475195 0.122071706
0.1013649 0.05542078 0.11679837 0.12427643 0.02763581 0.03303638 0.14019474 0.0106156645
0.03091376 0.014739711 0.020409128 0.05447175 0.056907553 0.031118017 0.044211194 0.06739517
0.0036130922 0.023811987 0.03388684 0.058001366 0.044110674 0.027091764 0.055469073 0.058393683
0.069026805 0.08270687 0.041236553 0.094566345 0.13140403 0.07798264 0.027219271 0.073550045
0.06150618 0.07000716 0.0007421065 0.05780488 0.07374639 0.03678967 0.09334504 0.03473722
0.035697356 0.05033103 0.007080387 0.0034086695 0.011180847 0.063992135 0.08962607 0.049999107
-0.051276952 0.21744697 0.23848662 0.042725112 0.15554428 0.2838766 -0.036461253 0.07718253
-0.121533975 0.15994217 0.20354754 0.019703403 -0.02008038 0.03635033 0.057443593 -0.025253741
00000000: 1be3 883d 827f bf3d 38e2 653d 733c 4d3d
00000010: 2ef2 db3d 2243 bf3d dd0c 193c 4f06 b13c
00000020: ec1c 103c 8084 9a3c ccf0 dd3c b240 b83c
00000030: fe8b 123d 1938 283d f473 323d e009 393d
00000040: d14d 303d 9867 173d ebf1 413b d865 dc3d
00000050: d7d0 b03c fb5c dd3c 2c0f a73d e720 d23c
00000060: 03d2 383b aac1 c93c 671c bd3b 0886 383d
00000070: 3c8c 4c3c 28ee 1d3c 5705 c23d 2b10 843d
00000080: d884 653d 2ebc f53c bf68 393d 69b5 843d
00000090: cc28 653d d7e1 f33c 0307 ca3d 2e2c e73b
000000a0: 7775 853c 25c3 ff3c 1e5c f53d ba4e 663d
000000b0: 51c5 2c3d 1ef4 f63c 93c6 103c 55f0 673c
000000c0: 5bfa 083d 2bf2 663c cf76 1b3d ab27 da3d
000000d0: 54c4 e53d 9e7f 943d 8181 af3d 8b64 013e
000000e0: 9f4b 5b3d f355 8e3d ff8d 743d 8364 833d
000000f0: 05bb 783d 3922 ec3d 816c 853d b48c bc3d
00000100: 7a43 ea3d 8967 df3d f7f7 b23d ad39 173d
00000110: df31 333d 70d0 913d c8f9 853d 8c6b 803d
00000120: ca3b 8a3d ff39 d03c 3081 943d 42b3 cf3c
00000130: eef3 243d 6309 0b3d 7ace 373d 8e5e 753d
00000140: d3ea 1c3d cf17 883d 21b6 003e 2951 0f3d
00000150: 2e23 943c 6a7d ba3d 2ea4 8c3c 6b06 2b3d
00000160: 0d92 d13d a2d4 f73c 375d ab3d b00e 623d
00000170: c9b7 203d 33c3 b43d 9b89 0a3e 79ee 103e
00000180: 3b2d d63d c0eb 9e3c 238d 273d ce3d c43d
00000190: a027 023d 68d4 823d 5a70 8f3d b03f 023d
000001a0: 4f8a 4b3d ec40 8b3d 63fc 2c3d f5cf b63c
000001b0: 1719 943c 843b da3c 51b7 e33d deb4 ab3b
000001c0: e770 a13b ef17 2e3a 8911 ad3c 389a 323c
000001d0: 5608 a23c fec3 1b3c 9f68 4739 12b8 143c
000001e0: 679b 3f3d 3127 a33d 7b5a 17bd 643e e73d
000001f0: ab24 cc3d 3412 e53d 0612 e23c 270a 8b3c
00000200: 7c57 d23a 53a3 863c 8943 243d fdc0 463d
00000210: bd56 9b3d 7df0 d93c 883e cf3c 8482 3f3d
00000220: cfa1 ae3d 1541 853c 6da3 1e3d 8d5c 653d
00000230: cdf5 283c a5eb 943c 40b1 2c3d 7c5e a93c
00000240: 8a8a 52bb 650d 253d 1e10 9c3b a9d9 2b3d
00000250: 98cd 173d 5162 d73c 9cda f03c cf67 043e
00000260: 2b94 0c3d 293e d53c 51f2 6f3d e5a6 413d
00000270: 1cbb 8f3d c44a 4b3d 367d b83c ee79 113c
00000280: e984 f9bb ee95 d53b 849b cd3c 9477 0c3c
00000290: ec54 273d deec 463d b046 283d 0d1d 173d
000002a0: dc80 923c 44ef 883c e45c 913d 739a d83d
000002b0: 3a67 e13d e42a df3d 3659 1f3e cd20 8a3d
000002c0: aaf1 3d3d 3714 de3d dc74 963d 6d53 783d
000002d0: b6b8 b63d 4c7b 803d 84c0 a13d 5fd4 813d
000002e0: c2b1 433d 4157 823d 775b b23d 3613 293d
000002f0: 1eb4 6f3d 4b9c 8e3d 367c c13d bb00 fa3d
00000300: 6798 cf3d e600 633d fc33 ef3d a484 fe3d
00000310: 7f64 e23c 2851 073d 368f 0f3e 53ed 2d3c
00000320: db3e fd3c d47e 713c 0b31 a73c c51d 5f3d
00000330: e517 693d 36eb fe3c cc16 353d 7b06 8a3d
00000340: a1c9 6c3b 5b11 c33c edcc 0a3d d792 6d3d
00000350: 65ad 343d 8cef dd3c 8a33 633d 372e 6f3d
00000360: ed5d 8d3d 3862 a93d a9e7 283d 00ac c13d
00000370: c78e 063e 5db5 9f3d f3fa de3c 68a1 963d
00000380: e7ed 7b3d ea5f 8f3d ed89 423a cfc4 6c3d
00000390: 5908 973d c4b0 163d af2b bf3d 9d48 0e3d
000003a0: 6437 123d e927 4e3d 9702 e83b fc63 5f3b
000003b0: df2f 373c 4f0e 833d df8d b73d ddcb 4c3d
000003c0: c807 52bd 6baa 5e3e d635 743e 8700 2f3d
000003d0: 0047 1f3e 4658 913e 6558 15bd e011 9e3d
000003e0: cee6 f8bd e1c7 233e c46e 503e 0869 a13c
000003f0: 9c7f a4bc 15e4 143d f949 6b3d efe0 cebc

temporal_encoder.weight_hh_l0 f4 [96, 32]
-0.048952572 -0.012819971 0.07563486 -0.04384505 -0.12602325 -0.004199565 0.029616578 0.034635056
0.01568156 -0.043585654 0.024908902 0.029853268 0.014846338 -0.041516528 0.06471683 -0.1593476
-0.029601052 -0.050546393 -0.087391846 0.0535516 0.013388375 -0.007640337 0.052629307 -0.047106724
-0.0047139013 0.05215202 -0.067728885 -0.10226872 -0.03049582 0.071864985 0.10177631 0.01885758
0.08445325 0.7776938 -0.25190774 0.04297792 0.13343582 -0.03514527 0.04608254 -0.08042307
0.09593722 0.15099408 -0.10324021 0.22846517 -0.02342844 0.30549422 0.20465447 -0.017448569
-0.17102256 -0.15608805 -0.051341094 -0.121502295 0.1437049 0.09952792 0.13431318 -0.04520958
-0.021149572 0.38127643 0.078310646 -0.15338662 0.088177465 0.14869972 0.51081616 -0.0024874653
0.13439795 0.1561853 -0.15636046 -0.042571276 0.15122408 0.22973233 0.245962 -0.08113234
-0.33554325 0.15097804 0.43194643 0.0120199835 -0.26725462 0.13257128 0.06146485 -0.12045776
0.2518094 0.18694636 -0.053811185 0.041004673 -0.08731775 -0.099660285 -0.12995116 0.37052715
0.021436913 -0.25927472 0.18025547 -0.07355728 0.04259266 -0.17131603 -0.09004229 -0.005247308
-0.12919591 0.025475688 -0.022351835 0.071794346 0.3110452 0.04260022 0.21896747 -0.11820185
0.023602538 0.14040183 -0.046400994 0.004510321 0.2866815 0.31172097 0.24254262 -0.0905992
0.005335031 -0.111042 -0.084786505 0.38140488 -0.15440346 0.1239052 -0.09458821 0.052123483
0.089624226 -0.27637625 0.04081664 -0.1022514 0.24354962 0.24468288 -0.26399308 0.16025129
-0.016481422 -0.054368738 0.023361783 0.10517869 0.18169118 -0.19393812 0.33009365 0.028802615
-0.17850338 -0.055745132 0.19644326 -0.25730094 0.040826388 -0.15958034 -0.03523401 0.084098294
-0.03983449 -0.46971405 0.1127794 0.15439896 -0.111292526 -0.23105001 0.117447294 0.008921112
0.15353233 0.18459868 0.0064008716 0.07405068 -0.008688073 -0.050553463 -0.0581699 -0.17948735
0.046286687 -0.05972172 0.18422428 0.12808451 -0.13834345 0.15008415 0.010771089 -0.102340475
-0.09203221 0.05806671 -0.12029035 -0.086571395 -0.08479059 0.105968125 0.013896394 -0.15609154
-0.23324908 -0.025964836 0.02352355 0.104332626 0.17953719 -0.034077678 0.18760286 -0.11714013
0.015893366 0.089731656 -0.12607749 0.04075803 0.37972158 -0.02961119 -0.095527895 -0.19238277
-0.04381634 0.010261618 -0.13625428 -0.062439527 -0.055578463 0.13210756 0.4663605 -0.003537929
0.15846576 -0.056367308 0.12790506 -0.13731343 -0.09908927 -0.35924697 -0.013163143 -0.124057144
0.11329488 0.07331368 0.09087065 -0.06315768 0.13990268 0.079697534 0.15447895 0.13796271
0.16799212 -0.01753097 -0.25407737 0.122853 0.0241479 -0.005859469 0.09089324 -0.11200362
0.07020232 0.01952779 0.043968976 -0.00090171996 -0.022933243 -0.024664864 0.11758151 0.08862825
-0.10118864 -0.008389821 0.10430862 0.08142551 -0.1435092 -0.014163917 0.0041321865 -0.04524922
0.059055682 -0.030289914 0.022627514 0.054216094 0.021884492 -0.05100772 -0.044906784 -0.03771256
-0.121063545 0.013909594 -0.038537715 -0.10353881 -0.085772276 0.040414266 -0.04912355 0.017153297
00000000: 7e82 48bd db0a 52bc 73e6 9a3d de96 33bd
00000010: 3d0c 01be 819c 89bb 779e f23c 7ddd 0d3d
00000020: 9d76 803c df86 32bd c10d cc3c d78e f43c
00000030: 0e3e 733c 3c0d 2abd 428a 843d 042c 23be
00000040: e87d f2bc bc09 4fbd 7ffa b2bd ec58 5b3d
00000050: ea5a 5b3c cb5b fabb d491 573d fbf2 40bd
00000060: 1277 9abb 5b9d 553d 71b5 8abd 4372 d1bd
00000070: 5fd2 f9bc f32d 933d 1970 d03d 367b 9a3c
00000080: d3f5 ac3d f116 473f 0dfa 80be 9e09 303d
00000090: 66a3 083e 7df4 0fbd 0cc1 3c3d dab4 a4bd
000000a0: bc7a c43d 319e 1a3e 9a6f d3bd c6f2 693e
000000b0: 00ed bfbc bd69 9c3e f190 513e 4df0 8ebc
000000c0: 8a20 2fbe 8cd5 1fbe 0a4b 52bd 32d6 f8bd
000000d0: 6127 133e 4bd5 cb3d 6589 093e ae2d 39bd
000000e0: de41 adbc aa36 c33e 5561 a03d 6211 1dbe
000000f0: 6396 b43d bd44 183e d9c4 023f be04 23bb
00000100: 9e9f 093e 0aef 1f3e f51c 20be 385f 2ebd
00000110: 7cda 1a3e f43e 6b3e 76dd 7b3e b628 a6bd
00000120: 53cc abbe fd99 1a3e 1528 dd3e 77ef 443c
00000130: 99d5 88be c4c0 073e 91c2 7b3d 8fb2 f6bd
00000140: 29ed 803e de6e 3f3e 1e69 5cbd 84f4 273d
00000150: a6d3 b2bd b11a ccbd eb11 05be bcb5 bd3e
00000160: 779c af3c a8bf 84be e494 383e 33a5 96bd
00000170: a475 2e3d 786d 2fbe 1868 b8bd 9cf1 abbb
00000180: ef4b 04be 64b2 d03c 321b b7bc ea08 933d
00000190: 5141 9f3e 917d 2e3d 0239 603e d013 f2bd
000001a0: 1c5a c13c 7fc5 0f3e f80e 3ebd 51cb 933b
000001b0: ebc7 923e e499 9f3e 185d 783e 138c b9bd
000001c0: 7cd1 ae3b fd69 e3bd 8ca4 adbd 8047 c33e
000001d0: f11b 1ebe 02c2 fd3d 77b7 c1bd 6f7f 553d
000001e0: e88c b73d 3081 8dbe 592f 273d 2f69 d1bd
000001f0: 1265 793e 268e 7a3e 1a2a 87be ea18 243e
00000200: 0c04 87bc c1b1 5ebd 3661 bf3c ed67 d73d
00000210: 410d 3a3e b797 46be 0902 a93e 76f3 eb3c
00000220: 97c9 36be 0255 64bd 6c28 493e f3bc 83be
00000230: 9239 273d 0769 23be 8a51 10bd ba3b ac3d
00000240: 7d29 23bd 5c7e f0be e3f8 e63d c31a 1e3e
00000250: 56ed e3bd 6098 6cbe 3588 f03d db29 123c
00000260: 9437 1d3e 7007 3d3e 67be d13b e2a7 973d
00000270: 6b58 0ebc 2611 4fbd 9043 6ebd 88cb 37be
00000280: 1c97 3d3d c39e 74bd 4aa5 3c3e 9628 033e
00000290: e8a9 0dbe a9af 193e 3979 303c e297 d1bd
000002a0: 627b bcbd 5cd7 6d3d c95a f6bd 584c b1bd
000002b0: b0a6 adbd d105 d93d b3ad 633c 76d6 1fbe
000002c0: d9d8 6ebe 35b4 d4bc 76b4 c03c 58ac d53d
000002d0: 99d8 373e 0995 0bbd f71a 403e 2ae7 efbd
000002e0: ce32 823c 3bc5 b73d 751a 01be e4f1 263d
000002f0: de6a c23e 2b93 f2bc 21a4 c3bd fdff 44be
00000300: c378 33bd 5820 283c 3e86 0bbe 97c0 7fbd
00000310: 3ea6 63bd 3447 073e cec6 ee3e 99dc 67bb
00000320: d944 223e 68e1 66bd 8bf9 023e e49b 0cbe
00000330: 51ef cabd 38ef b7be 39aa 57bc ac11 febd
00000340: 2507 e83d 7c25 963d 641a ba3d d058 81bd
00000350: a642 0f3e 7638 a33d bb2f 1e3e 1946 0d3e
00000360: 2006 2c3e 1c9d 8fbc 6e16 82be 5b9a fb3d
00000370: d1d1 c53c ca00 c0bb 3c26 ba3d 2762 e5bd
00000380: 3cc6 8f3d bef8 9f3c d018 343d 6761 6cba
00000390: 7fde bbbc f80d cabc 93ce f03d ba82 b53d
000003a0: fd3b cfbd 7675 09bc c29f d53d 6bc2 a63d
000003b0: 13f4 12be c60f 68bc 4b67 873b 3f57 39bd
000003c0: 5fe4 713d 8e22 f8bc 565d b93c b211 5e3d
000003d0: 1b47 b33c 79ed 50bd 2df0 37bd 7c78 1abd
000003e0: 2af0 f7bd 11e5 633c b9d9 1dbd 280c d4bd
000003f0: 60a9 afbd 6e89 253d c735 49bd 1285 8c3c

temporal_encoder.bias_ih_l0 f4 [96]
0.09958133 0.065359384 -0.004269802 0.14408836 0.09106935 0.09571854 0.083922885 0.088654086
0.10807931 -0.058025528 0.019468604 -0.047120724 -0.062519014 0.059543423 0.060013857 -0.0111052785
0.113837205 0.027840283 0.14444442 -0.13289174 -0.03237016 -0.13731182 0.041752953 0.11925653
0.00095094595 0.20754871 0.054739162 0.011266845 0.11091559 0.15078828 0.19378346 -0.031530574
-0.10968707 0.12734318 0.08015081 -0.098601185 0.032977484 -0.11548061 0.0010200923 0.15899864
0.102889664 0.14637446 0.10405201 0.16054341 -0.032801934 0.08472209 -0.16461556 0.2000268
-0.029160187 0.16077289 0.09381528 0.03609462 0.07589438 -0.08806933 -0.11631817 -0.09748692
0.021301001 0.048070926 0.15939058 -0.1442651 0.0038142167 0.06838007 0.11200607 0.035879746
-0.07772512 0.14416718 -0.15354028 -0.07289026 0.13539389 -0.09491657 -0.039702382 -0.053621393
0.007685278 0.055748574 -0.008177014 0.16324772 -0.19700146 -0.12818982 0.21803759 -0.18560354
-0.03801848 0.07157821 -0.061491616 0.04088451 0.19248445 -0.18949166 0.13896357 -0.16453096
-0.17454469 0.19357641 0.08777555 -0.01010142 -0.14889538 0.026595471 0.13114369 -0.11594793
00000000: 4cf1 cb3d 24db 853d b2e9 8bbb e68b 133e
00000010: 9182 ba3d 1508 c43d c3df ab3d 4690 b53d
00000020: af58 dd3d 2dac 6dbd 9f7c 9f3c a901 41bd
00000030: f809 80bd cee3 733d 17d1 753d eaf2 35bc
00000040: 7b23 e93d 4e11 e43c 3de9 133e c614 08be
00000050: 9396 04bd 789b 0cbe 2505 2b3d c53c f43d
00000060: e748 793a a687 543e 2c36 603d 9398 383c
00000070: b627 e33d 3e68 1a3e 2c6f 463e 3426 01bd
00000080: 9da3 e0bd 4066 023e 1c26 a43d 6bef c9bd
00000090: 6613 073d 1981 ecbd 9eb4 853a 8ad0 223e
000000a0: d1b7 d23d 30e3 153e 3819 d53d 7e65 243e
000000b0: 525b 06bd c682 ad3d fb90 28be d3d3 4c3e
000000c0: 58e1 eebc a6a1 243e 3a22 c03d f4d7 133d
000000d0: 836e 9b3d b15d b4bd 3938 eebd 39a7 c7bd
000000e0: 707f ae3c 05e6 443d 4937 233e 3bba 13be
000000f0: f0f7 793b da0a 8c3d 7063 e53d a4f6 123d
00000100: 592e 9fbd 90a0 133e aa39 1dbe 7d47 95bd
00000110: b2a4 0a3e 9e63 c2bd f79e 22bd 1ba2 5bbd
00000120: c9d4 fb3b 9e58 643d e2f8 05bc 692a 273e
00000130: c0ba 49be 3144 03be 3f45 5f3e db0e 3ebe
00000140: 44b9 1bbd 9997 923d a2de 7bbd 8476 273d
00000150: a51a 453e 1a0a 42be 774c 0e3e ce7a 28be
00000160: d8bb 32be e538 463e abc3 b33d 6d80 25bc
00000170: 0878 18be bfde d93c 884a 063e 1c76 edbd

temporal_encoder.bias_hh_l0 f4 [96]
0.11203541 -0.07000916 -0.051681295 -0.03877225 0.06543837 -0.09485744 -0.08437326 0.19183767
0.065653585 -0.06935408 -0.11796229 -0.002393989 -0.03779003 -0.081645906 -0.16042946 -0.08167176
-0.14268208 -0.17677899 -0.13126646 0.08250182 0.044612832 -0.009219369 0.03785684 -0.028561179
0.00985482 0.0882739 0.16997892 -0.028161736 0.12627465 0.20629472 0.053175747 0.1076279
0.03951999 0.14320391 0.037023395 0.1647989 0.08194812 -0.19802277 0.02811325 0.17245026
-0.037430596 -0.08762618 0.04363577 -0.123280786 0.088186994 0.05712732 -0.12491337 -0.06318252
0.1860048 -0.027715769 -0.1723533 -0.07299668 -0.11223701 -0.0060675144 -0.12800452 0.13407181
0.09137966 -0.077519834 -0.12724936 0.16038835 0.15851516 -0.080649346 0.20233433 0.037417587
-0.061073624 -0.01120347 0.16452175 0.18048269 0.1249752 -0.082904354 0.18716347 -0.13753942
-0.16461504 0.04931484 0.23773648 -0.19177964 0.14666907 0.13066828 0.012520289 0.06863258
-0.124144375 0.121761896 -0.20375937 0.020379456 -0.092919864 -0.0102317 -0.17720857 0.03506372
0.10274419 0.20122722 -0.16546921 -0.0067775846 -0.16949686 -0.028112145 -0.21604551 -0.26471537
00000000: d272 e53d f660 8fbd c4af 53bd a7cf 1ebd
00000010: 8d04 863d 9e44 c2bd e3cb acbd 1871 443e
00000020: 6375 863d 8309 8ebd 3796 f1bd 78e4 1cbb
00000030: b8c9 1abd f835 a7bd 9f47 24be 8643 a7bd
00000040: 401b 12be 8d05 35be b76a 06be b7f6 a83d
00000050: f2bb 363d d60c 17bc c60f 1b3d 22f9 e9bc
00000060: 1c76 213c f2c8 b43d f40e 2e3e 71b3 e6bc
00000070: 244e 013e ec3e 533e d0ce 593d 046c dc3d
00000080: b7df 213d 0ca4 123e d8a5 173d 0bc1 283e
00000090: 6ad4 a73d 7bc6 4abe c24d e63c cd96 303e
000000a0: d350 19bd 5b75 b3bd 6cbb 323d a37a fcbd
000000b0: 629b b43d 56fe 693d 95d2 ffbd d665 81bd
000000c0: 0b78 3e3e 2e0c e3bc 627d 30be 497f 95bd
000000d0: 84dc e5bd 00d2 c6bb 9e13 03be 1f4a 093e
000000e0: 4225 bb3d b8c2 9ebd a84d 02be d83c 243e
000000f0: cc51 223e 7c2b a5bd bb30 4f3e 2f43 193d
00000100: 5628 7abd c28e 37bc 6478 283e 74d0 383e
00000110: fff2 ff3d c2c9 a9bd c8a7 3f3e 22d7 0cbe
00000120: d890 28be 5cfe 493d 3171 733e e261 44be
00000130: 6b30 163e e8cd 053e e621 4d3c 3d8f 8c3d
00000140: 683f febd 4d5e f93d 4ca6 50be d1f2 a63c
00000150: c54c bebd dca2 27bc 2a76 35be fa9e 0f3d
00000160: 8c6b d23d 820e 4e3e c370 29be 8016 debb
00000170: 9690 2dbe 714b e6bc 093b 5dbe c688 87be

temporal_encoder.weight_ih_l0_reverse f4 [96, 240]
-0.015128899 -0.002908479 -0.04106455 0.05497802 -0.016168153 -0.06813651 -0.013851166 0.04947067
0.037049007 -0.005830977 0.0971963 0.025677636 0.009739762 -0.01749881 0.13967042 0.013776007
-0.0306749 -0.0025813566 0.14348415 0.0066037094 -0.00020298018 0.07607253 -0.018208992 0.085624084
0.07109204 0.117787234 -0.013400538 0.050259847 0.12467835 -0.07320289 -0.0048635867 -0.037035745
0.022091221 0.10263879 0.011817883 0.028143965 -0.014559792 -0.06037774 -0.10261546 -0.007978847
0.100565985 0.13462494 0.0746121 -0.041921258 0.006991259 -0.039477143 0.017585307 0.014067559
-0.02012584 0.025794877 0.06512371 -0.061768282 -0.09115824 -0.029979723 -0.01709862 -0.044417594
-0.006593383 0.035577886 -0.014772854 -0.035304576 0.0015410217 0.06363234 0.017260281 0.01783543
0.07186553 -0.051909056 0.09187944 0.01985847 0.060775507 -0.0001417642 0.008816793 0.029912755
-0.010375324 -0.038014997 0.056688536 0.017327141 0.0070736636 0.13527462 -0.0031619368 -0.041834846
0.05214957 0.07380551 0.15011264 0.12252514 0.017853392 -0.02218415 0.06757238 0.05958512
0.015025833 -0.05366853 -0.079578765 -0.028964764 -0.019474624 0.054593474 -0.024690997 0.07079322
-0.030898789 -0.028241917 -0.03813663 -0.0037942436 0.03286764 0.052829772 0.03737243 -0.001580754
0.0555115 -0.012671477 0.022926116 0.09341497 0.0072476543 0.046460807 -0.044221614 0.014552198
0.11168484 0.020927181 -0.05273057 0.039682116 -0.015519021 -0.059034508 -0.025522603 -0.0021736268
0.04999316 -0.0431356 0.13358928 0.050560057 0.024071079 0.049767207 -0.035566434 -0.01733116
0.031867534 0.04340993 0.12275687 -0.039771907 0.05358396 0.030981753 -0.01266337 -0.047469445
0.07965623 0.012700885 0.042350195 0.0685627 0.017708037 0.029686926 0.12189825 -0.044116836
0.0120458035 0.052829504 0.011482226 -0.054297063 -0.054977294 -0.04935329 0.00695245 0.08233228
0.0010203428 -0.024042573 0.107776985 0.0056000347 -0.008607953 -0.033960182 0.109652266 0.041266136
-0.00383429 -0.07371635 -0.019122513 0.01755617 -0.046675038 -0.043419667 -0.024565907 -0.030980859
0.031690773 0.02685934 -0.051264994 -0.02412296 -0.03543572 -0.074816376 -0.059920054 -0.028609904
-0.006903282 0.038718782 0.018019473 -0.056830272 0.04183591 0.09595461 -0.075951114 -0.009414576
-0.017314775 -0.0073815887 -0.092390604 -0.09463262 -0.12317021 0.02941386 0.06120788 -0.025608556
-0.039616812 0.0022546789 0.004989434 0.12733 -0.040860537 0.05740705 0.02681694 -0.009824702
0.027113479 0.011742516 -0.04980118 -0.056430932 0.11416808 0.029938612 0.029067524 0.0765524
-0.010408937 -0.0600451 -0.01815884 -0.013560648 -0.031852197 -0.020305783 -0.03035412 0.011619632
0.08228406 0.11176935 0.017898997 -0.07077919 -0.10747869 -0.06052334 0.024315925 0.03978754
0.05296023 -0.008308826 0.055323314 0.08201466 0.014679128 -0.020491883 -0.006365699 -0.052349802
-0.012056269 0.025873749 0.043746553 0.010133832 0.11042305 0.08407897 -0.030614061 -0.066078275
-0.11622832 -0.0045098513 0.17747828 -0.083581835 0.10087826 -0.0926241 0.009234407 0.17032042
0.0139593845 0.014742787 0.09387985 0.037990708 0.07826303 0.080286466 0.10455659 -0.21459714
00000000: 34df 77bc 2e9c 3ebb 4d33 28bd a230 613d
00000010: 1373 84bc 288b 8bbd 00f0 62bc c2a1 4a3d
00000020: b3c0 173d c811 bfbb db0e c73d e859 d23c
00000030: 8693 1f3c aa59 8fbc c305 0f3e c3b4 613c
00000040: ee49 fbbc fa2b 29bb 82ed 123e ee63 d83b
00000050: 14d7 54b9 eacb 9b3d 062b 95bc ae5b af3d
00000060: b498 913d 6f3a f13d ee8d 5bbc 45dd 4d3d
00000070: 5d57 ff3d 66eb 95bd b95e 9fbb cbb2 17bd
00000080: a6f8 b43c 4934 d23d cb9f 413c 2c8e e63c
00000090: 328c 6ebc a64e 77bd 0e28 d2bd b6b9 02bc
000000a0: 8af5 cd3d 1fdb 093e 3bce 983d a0b5 2bbd
000000b0: ee16 e53b c9b2 21bd 100f 903c 9e7b 663c
000000c0: f2de a4bc c74f d33c 945f 853d bd00 7dbd
000000d0: 2cb1 babd 0998 f5bc 6812 8cbc 39ef 35bd
000000e0: 4e0d d8bb 1eba 113d d709 72bc 889b 10bd
000000f0: 1cfc c93a ac51 823d 6f65 8d3c 9c1b 923c
00000100: 3c2e 933d 979e 54bd 4a2b bc3d 3bae a23c
00000110: bdef 783d 8aa6 14b9 4f74 103c 980b f53c
00000120: 43fd 29bc 9db5 1bbd 3d32 683d a6f1 8d3c
00000130: 31ca e73b 6e85 0a3e 7f38 4fbb 045b 2bbd
00000140: ca9a 553d 5827 973d 21b7 193e 76ee fa3d
00000150: 4741 923c 89bb b5bc 6363 8a3d 870f 743d
00000160: e92e 763c 88d3 5bbd 31fa a2bd 8347 edbc
00000170: 3f89 9fbc 689d 5f3d c644 cabc 09fc 903d
00000180: 751f fdbc 985b e7bc 2835 1cbd d8a8 78bb
00000190: 38a0 063d 0864 583d d513 193d 4d31 cfba
000001a0: 0760 633d 079c 4fbc 8dcf bb3c 5950 bf3d
000001b0: bb7d ed3b b04d 3e3d b921 35bd 586c 6e3c
000001c0: 05bb e43d 7b6f ab3c 03fc 57bd b789 223d
000001d0: 7e43 7ebc 2bce 71bd c714 d1bc 6873 0ebb
000001e0: a1c5 4c3d f4ae 30bd a1cb 083e 1018 4f3d
000001f0: b630 c53c b3d8 4b3d 1cae 11bd 14fa 8dbc
00000200: 8887 023d 9cce 313d f467 fb3d dee7 22bd
00000210: db7a 5b3d 72cd fd3c 067a 4fbc 526f 42bd
00000220: ce22 a33d 5f17 503c 6677 2d3d 9a6a 8c3d
00000230: 7210 913c ff31 f33c caa5 f93d dbb3 34bd
00000240: c35b 453c c063 583d f21f 3c3c 9966 5ebd
00000250: df2f 61bd ad26 4abd 61d1 e33b d49d a83d
00000260: 06bd 853a eef4 c4bc 2eba dc3d 7f80 b73b
00000270: 5f08 0dbc d519 0bbd 5e91 e03d ae06 293d
00000280: b648 7bbb 99f8 96bd d1a6 9cbc f5d1 8f3c
00000290: 532e 3fbd d2d8 31bd 713e c9bc 92cb fdbc
000002a0: 2fce 013d 1e08 dc3c 3efb 51bd 849d c5bc
000002b0: 0c25 11bd 5439 99bd bb6e 75bd 515f eabc
000002c0: ed34 e2bb 9697 1e3d 939d 933c dcc6 68bd
000002d0: 225c 2b3d da83 c43d 428c 9bbd 983f 1abc
000002e0: b7d7 8dbc 41e1 f1bb 4937 bdbd bfce c1bd
000002f0: aa40 fcbd 56f5 f03c 1db5 7a3d 09c9 d1bc
00000300: 3d45 22bd 3cc3 133b 687e a33b cc62 023e
00000310: 615d 27bd a823 6b3d 33af db3c c9f7 20bc
00000320: 161d de3c af63 403c 52fc 4bbd 1f24 67bd
00000330: f4d0 e93d d241 f53c 041f ee3c 81c7 9c3d
00000340: 3f8a 2abc daf1 75bd d9c1 94bc 7b2d 5ebc
00000350: 7377 02bd 5058 a6bc 34a9 f8bc 4560 3e3c
00000360: 8c84 a83d 54e7 e43d eba0 923c aef4 90bd
00000370: ca1d dcbd 52e7 77bd 3132 c73c 42f8 223d
00000380: d3ec 583d be21 08bc b39a 623d 4df7 a73d
00000390: ba80 703c 98de a7bc 5b97 d0bb bf6c 56bd
000003a0: a887 45bc 2ff5 d33c 962f 333d 5f08 263c
000003b0: 7b25 e23d 9831 ac3d 57ca fabc 0c54 87bd
000003c0: 1d09 eebd 60c7 93bb debc 353e f42c abbd
000003d0: 4399 ce3d b4b1 bdbd e94b 173c 7a68 2e3e
000003e0: e7b5 643c bb8b 713c 1444 c03d 259c 1b3d
000003f0: 5e48 a03d 3b6d a43d c421 d63d 5abf 5bbe

temporal_encoder.weight_hh_l0_reverse f4 [96, 32]
-0.07942999 0.1088698 0.073170796 -0.10686306 -0.04055472 -0.06732681 -0.08861862 0.0264568
0.008216254 0.09358266 0.08131833 -0.17437097 0.057943523 -0.13490099 -0.07507801 0.104317226
-0.04627919 0.007571718 0.030540729 -0.038753618 0.11912112 -0.09306065 0.10445838 -0.09510335
0.008662938 0.007500163 0.079690136 -0.04653654 -0.03227811 0.03776508 0.04277167 -0.062271897
0.121564835 -0.49016854 0.06907545 0.059365083 0.12277149 0.15699916 -0.1142026 0.03092802
0.07658917 -0.18978985 -0.047849976 0.32883245 0.0053012716 0.008787988 0.04481821 -0.345493
0.18266624 -0.2124168 -0.06968961 0.08721034 -0.0414558 -0.006987258 0.0043914486 -0.09645613
0.5044211 0.119364254 0.18938127 0.12233979 -0.045288537 -0.054276872 -0.14924924 0.10663113
0.11662736 0.104017906 0.079593584 0.22865091 -0.058100604 0.12302478 0.0495178 -0.11333474
0.029153937 -0.09076126 0.00044795117 0.006833458 0.13904268 0.06854237 -0.10604415 0.19315496
0.03565809 -0.03043764 -0.087660216 -0.15175486 0.02528484 0.01570481 0.10053303 -0.25411293
-0.022439567 0.0029865454 -0.12516835 -0.24485724 -0.060859736 0.06507152 -0.0048580435 -0.003570172
-0.06074474 0.11556385 -0.014724677 0.079678275 -0.046732 0.106883496 0.22951092 -0.003753796
-0.011882513 0.17515098 0.28373075 -0.22238316 -0.05552302 -0.053221785 0.16658238 0.095760316
0.13546394 0.18932192 -0.16810234 -0.04214482 0.15375525 -0.17784742 0.065107174 -0.07497644
0.096069835 -0.09057093 -0.015931346 -0.32002404 0.07530255 0.08380488 -0.004037059 -0.06275435
0.21759343 -0.038852137 0.21390305 0.09691304 -0.5002827 0.06213795 0.13195647 0.33950144
0.17552096 0.043847177 0.26183608 -0.010726503 -0.11396911 0.034469303 0.24676919 -0.15245181
-0.054622147 -0.15290143 0.10385132 -0.11168154 -0.092376746 0.15101913 -0.086904556 -0.061265193
0.060344648 0.20450437 0.07599061 -0.0708957 0.024641847 0.002673157 0.043368332 -0.25292057
-0.032772966 0.0153296 -0.0041781627 0.002610758 -0.050602682 0.05232217 0.011070262 0.039088458
-0.07558454 -0.054985117 -0.010988583 -0.04212792 0.02655366 -0.028438888 -0.037561037 -0.05044425
0.06261 -0.009033776 0.025051527 -0.057044707 -0.052219722 -0.0075097247 -0.027212672 0.0020008264
-0.02442665 -0.02281136 0.055377983 0.042270176 -0.0024728156 -0.047183525 0.024151042 -0.019894332
0.08974221 0.19724342 0.18103065 -0.06809504 0.13506505 0.054424856 -0.12590216 -0.10394764
0.063823715 -0.09875722 -0.6053362 -0.008931425 -0.121125765 -0.032758888 0.050961684 -0.44106156
0.28923965 -0.16724563 -0.14788601 -0.054156814 -0.13808323 0.21146609 0.12100626 0.00084618595
0.04171817 0.022864662 -0.012979527 -0.1013549 -0.40369025 -0.16042182 -0.33202165 0.26101735
-0.09286141 -0.1829106 0.08867013 0.19809814 0.10689366 -0.19978945 -0.1947916 -0.26670414
-0.0350038 -0.11914904 -0.21278098 0.1549731 0.049560037 -0.25041255 0.05194538 -0.042287517
0.039399087 0.11782075 -0.29217646 -0.025321 -0.051976398 -0.019851288 0.006728891 -0.1967371
0.3680217 0.07453521 0.12701477 -0.019758092 0.05140384 -0.0934588 0.037481897 0.23824582
00000000: 31ac a2bd 21f7 de3d 92da 953d 05db dabd
00000010: b51c 26bd a3e2 89bd ae7d b5bd eebb d83c
00000020: 789d 063c 44a8 bf3d 398a a63d 4e8e 32be
00000030: 3056 6d3d 7c23 0abe 80c2 99bd 45a4 d53d
00000040: 3f8f 3dbd 2d1c f83b 8d30 fa3c 1dbc 1ebd
00000050: c6f5 f33d 9596 bebd 46ee d53d 8cc5 c2bd
00000060: ffee 0d3c edc3 f53b 9534 a33d 199d 3ebd
00000070: 0d36 04bd 8eaf 1a3d 5931 2f3d d110 7fbd
00000080: fcf6 f83d 5ff7 fabe 6e77 8d3d cd28 733d
00000090: 9e6f fb3d 63c4 203e 0ee3 e9bd c25c fd3c
000000a0: c8da 9c3d 4558 42be 56fe 43bd ba5c a83e
000000b0: 4ab6 ad3b 7efb 0f3c 4d93 373d 75e4 b0be
000000c0: dc0c 3b3e ca83 59be 6db9 8ebd 569b b23d
000000d0: 8fcd 29bd 5ef5 e4bb 24e6 8f3b cb8a c5bd
000000e0: be21 013f 3f75 f43d 2aed 413e 498d fa3d
000000f0: 7980 39bd 6d51 5ebd cbd4 18be 6c61 da3d
00000100: 53da ee3d 5707 d53d f601 a33d 7723 6a3e
00000110: e6fa 6dbd 6af4 fb3d 2dd3 4a3d 0b1c e8bd
00000120: 3dd4 ee3c 0ae1 b9bd fdda ea39 33eb df3b
00000130: 3461 0e3e f15f 8c3d ad2d d9bd 6aca 453e
00000140: 380e 123d 5c58 f9bc 3387 b3bd a065 1bbe
00000150: 2722 cf3c 60a7 803c 43e4 cd3d 171b 82be
00000160: 2fd3 b7bc ebb9 433b 222c 00be dbbb 7abe
00000170: 0f48 79bd 3844 853d 3930 9fbb 8cf9 69bb
00000180: 7acf 78bd bdac ec3d c63f 71bc 5d2e a33d
00000190: 0e6a 3fbd bce5 da3d e904 6b3e 3f02 76bb
000001a0: dfae 42bc c75a 333e 2845 913e 69b8 63be
000001b0: 1b6c 63bd 16ff 59bd 9294 2a3e fc1d c43d
000001c0: 0fb7 0a3e 9bdd 413e 0523 2cbe 0ca0 2cbd
000001d0: 0472 1d3e a21d 36be e956 853d 3f8d 99bd
000001e0: 43c0 c43d 407d b9bd 7482 82bc 31da a3be
000001f0: 3938 9a3d e5a1 ab3d 4e49 84bb 5a85 80bd
00000200: d0d0 5e3e 6b23 1fbd 6709 5b3e 587a c63d
00000210: 8712 00bf 5d84 7e3d 991f 073e 22d3 ad3e
00000220: c4bb 333e 1999 333d 610f 863e 37be 2fbc
00000230: a368 e9bd af2f 0d3d 10b1 7c3e 541c 1cbe
00000240: 79bb 5fbd 3192 1cbe 00b0 d43d 4bb9 e4bd
00000250: 0530 bdbd c2a4 1a3e 04fb b1bd 36f1 7abd
00000260: f32b 773d 9869 513e f7a0 9b3d c431 91bd
00000270: b3dd c93c 2230 2f3b fea2 313d ce7e 81be
00000280: f23c 06bd 0129 7b3c f8e8 88bb 4019 2b3b
00000290: c244 4fbd c64f 563d 0b60 353c 381b 203d
000002a0: 11cc 9abd 1338 61bd 7509 34bc 538e 2cbd
000002b0: 1087 d93c acf8 e8bc 9ad9 19bd a19e 4ebd
000002c0: ac39 803d 6702 14bc dc38 cd3c b6a7 69bd
000002d0: 59e4 55bd 2314 f6bb 1ced debc 4c20 033b
000002e0: 661a c8bc e4de babc 06d4 623d 7e23 2d3d
000002f0: f60e 22bb 8343 41bd 68d8 c53c 70f9 a2bc
00000300: c4ca b73d 2efa 493e 1960 393e 6a75 8bbd
00000310: 7e4e 0a3e 99ec 5e3d 7fec 00be 80e2 d4bd
00000320: 02b6 823d 3a41 cabd 50f7 1abf 1d55 12bc
00000330: c910 f8bd 2f2e 06bd 33bd 503d d2d2 e1be
00000340: 3817 943e 7042 2bbe 6e6f 17be 89d3 5dbd
00000350: b165 0dbe 918a 583e 21d2 f73d 94d2 5d3a
00000360: ace0 2a3d ac4e bb3c 15a8 54bc 2893 cfbd
00000370: 7db0 cebe 9e45 24be befe a9be 11a4 853e
00000380: 1f2e bebd eb4c 3bbe af98 b53d 3dda 4a3e
00000390: 10eb da3d 9b95 4cbe 7377 47be 728d 88be
000003a0: 2560 0fbd 6904 f4bd 42e3 59be 45b1 1e3e
000003b0: 77ff 4a3d 1336 80be aec4 543d ad35 2dbd
000003c0: f060 213d 014c f13d 2798 95be fc6d cfbc
000003d0: 34e5 54bd 2b9f a2bc 077e dc3b 7375 49be
000003e0: 576d bc3e eba5 983d 2910 023e b9db a1bc
000003f0: d58c 523d 5467 bfbd 9e86 193d b6f6 733e

temporal_encoder.bias_ih_l0_reverse f4 [96]
0.07914005 0.06809233 0.06362783 0.07793582 0.016976345 0.07473292 0.18570669 -0.15614161
-0.037329193 -0.007465828 0.025201442 0.1318373 0.09675494 -0.00944819 -0.030710457 -0.09255252
0.018560568 0.01931337 0.011153224 0.008269278 0.014775082 -0.05745075 -0.07224777 0.06211461
0.020429721 -0.068762325 0.13229945 0.1576434 0.009519141 0.106605195 0.082754925 0.03336027
0.06504018 0.10527639 0.1319283 0.14878854 0.15390751 0.047463723 0.18667118 -0.15574168
-0.07397279 -0.16052425 -0.101728365 0.0011612799 -0.10818508 -0.16120532 0.16732548 -0.08346428
-0.14192991 -0.119805306 0.1592582 -0.14455035 0.04312692 0.0708071 0.07290131 0.09622811
-0.072702564 0.15876015 -0.15928435 0.06390621 -0.007922378 -0.15525976 -0.06386443 0.027529772
0.15446045 -0.07597325 0.13882977 -0.111642316 0.05458023 -0.085625425 -0.17098856 -0.16334893
0.001785734 0.103559166 0.028609922 -0.014388201 0.1481702 0.13064055 0.12897123 0.18017764
-0.12143726 0.059063 0.11346269 -0.019263297 -0.120383814 0.1958611 -0.058315102 -0.11132027
-0.08048338 0.18895921 -0.12433944 -0.106630586 -0.09817345 -0.01869075 -0.07027499 0.05850948
00000000: 2e14 a23d fe73 8b3d 4f4f 823d d19c 9f3d
00000010: fa11 8b3c 930d 993d e529 3e3e 96e3 1fbe
00000020: 7fe6 18bd e8a3 f4bb 4173 ce3c 5b00 073e
00000030: 7427 c63d 95cc 1abc 7f94 fbbc 2d8c bdbd
00000040: 550c 983c 1337 9e3c 03bc 363c de7b 073c
00000050: 2f13 723c 7a51 6bbd a4f6 93bd e46b 7e3d
00000060: 3b5c a73c 43d3 8cbd 8279 073e 456d 213e
00000070: 2cf6 1b3c d353 da3d 6a7b a93d c7a4 083d
00000080: c933 853d 269b d73d 3618 073e 065c 183e
00000090: ee99 1d3e 5269 423d bb26 3f3e bf7a 1fbe
000000a0: 0c7f 97bd 7860 24be f656 d0bd 1636 983a
000000b0: 2490 ddbd 0213 25be 5f57 2b3e 52ef aabd
000000c0: 1356 11be 7c5c f5bd 9514 233e 0205 14be
000000d0: daa5 303d 5003 913d 484d 953d 3e13 c53d
000000e0: 15e5 94bd 0592 223e 701b 23be 42e1 823d
000000f0: ddcc 01bc 6afc 1ebe 5bcb 82bd 1e86 e13c
00000100: e12a 1e3e dd97 9bbd 6429 0e3e baa4 e4bd
00000110: 858f 5f3d 625c afbd a017 2fbe f144 27be
00000120: 4a0f ea3a d416 d43d 5b5f ea3c 7dbc 6bbc
00000130: eeb9 173e a3c6 053e 0911 043e 7d80 383e
00000140: 19b4 f8bd 0bec 713d 205f e83d 10ce 9dbc
00000150: ca8b f6bd d08f 483e d1db 6ebd e2fb e3bd
00000160: 78d4 a4bd 867e 413e ada5 febd 2361 dabd
00000170: 290f c9bd 581d 99bc 55ec 8fbd a3a7 6f3d

temporal_encoder.bias_hh_l0_reverse f4 [96]
0.015031819 0.21322133 0.019482723 0.10999716 0.17025065 0.04981903 0.0972227 0.08490679
0.004738577 -0.018674819 0.06405545 0.022102788 0.09266116 0.14034203 0.07583936 0.012750872
0.2035419 0.06730278 -0.012827415 -0.010333302 0.01839237 0.14702445 -0.041445732 -0.09666066
0.0023876855 0.21365601 0.20654576 0.04882355 0.12843402 0.1780554 0.09561748 0.07953723
-0.06775987 -0.1677388 0.077103905 0.05036337 0.17341886 0.026561303 0.1632548 -0.15054424
0.039065324 -0.048437413 -0.105579786 0.15885805 -0.037503306 -0.021650609 0.16782205 0.12907864
-0.030671313 -0.022703633 -0.0033888833 -0.036648456 0.0722291 -0.032508265 -0.040982667 0.027180796
0.17689322 0.14498459 0.083038405 -0.03163375 0.19887394 -0.07171491 0.09742063 -0.010677604
-0.18855664 -0.231091 -0.078302495 0.13242327 -0.15130013 0.17803866 -0.09506512 0.049905125
-0.10757624 -0.048632678 0.029085351 0.047218498 -0.071585596 0.1857634 0.1046831 -0.084686205
-0.20716578 -0.1633463 0.092546776 0.014936907 -0.118589446 -0.06675148 0.038274158 0.0013721854
0.05783427 0.32813135 0.0004746532 0.06283196 0.1453782 -0.17884494 0.030626502 0.1418381
00000000: 0548 763c b156 5a3e 3b9a 9f3c 3146 e13d
00000010: 3056 2e3e 0a0f 4c3d b21c c73d 9ce3 ad3d
00000020: 1146 9b3b effb 98bc 812f 833d e810 b53c
00000030: 22c5 bd3d d2b5 0f3e ab51 9b3d 09e9 503c
00000040: 4a6d 503e 0ad6 893d 142a 52bc 034d 29bc
00000050: 98ab 963c 948d 163e 00c3 29bd 06f6 c5bd
00000060: b77a 1c3b a4c8 5a3e bb80 533e 34fb 473d
00000070: 3584 033e 2854 363e 19d3 c33d 6ae4 a23d
00000080: b0c5 8abd b8c3 2bbe a7e8 9d3d d249 4e3d
00000090: b794 313e 1797 d93c 442c 273e 4528 1abe
000000a0: f602 203d 4f66 46bd 373a d8bd afab 223e
000000b0: 119d 19bd 9e5c b1bc 8bd9 2b3e 312d 043e
000000c0: 6842 fbbc f8fc b9bc 0718 5ebb b11c 16bd
000000d0: daec 933d 6327 05bd 71dd 27bd 43aa de3c
000000e0: 7f23 353e d776 143e 0a10 aa3d 6492 01bd
000000f0: 9ca5 4b3e 44df 92bd 7884 c73d 1ef1 2ebc
00000100: fe14 41be 1ea3 6cbe 0f5d a0bd f799 073e
00000110: 6cee 1abe c44f 363e 80b1 c2bd 5169 4c3d
00000120: ef50 dcbd 0f33 47bd 6744 ee3c 2f68 413d
00000130: 789b 92bd c338 3e3e 1864 d63d f66f adbd
00000140: 4423 54be 4144 27be 2a89 bd3d eeb9 743c
00000150: 06df f2bd 00b5 88bd 5dc5 1c3d e7da b33a
00000160: a1e3 6c3d d500 a83e e0da f839 0bae 803d
00000170: 06de 143e 2123 37be 6ee4 fa3c 023e 113e
