models/saved_models/train_480_best_model.pth (torch, 239310 bytes, 24 tensors)

cnn.0.weight f4 [8, 1, 3, 3]
0	0xbd3393ad	-0.043842006
1	0x3f6a9142	0.91627896
2	0x3e05f6ce	0.1308243
3	0xbc207bc9	-0.009795138
4	0xbe392fcc	-0.1808464
5	0xbba6dca6	-0.0050922213
6	0xbe52b38f	-0.20576309
7	0xbe76920c	-0.2407915
8	0x3d3a8475	0.045536477
9	0xbaf245f1	-0.0018483979
10	0x3f3733f6	0.7156366
11	0x3d342004	0.043975845
12	0x3f07de4a	0.5307356
13	0x3dbaaada	0.091146186
14	0xbdcebc67	-0.10094529
15	0x3d82b09e	0.06381343
16	0x3e679f83	0.22619443
17	0xbdcdc067	-0.100464635
18	0xbdd1ddf9	-0.10247416
19	0xbc81bc6b	-0.015836915
20	0x3e0b4737	0.13601385
21	0xbd04d2e7	-0.032427695
22	0xbcc173cc	-0.023614787
23	0x3f62554f	0.8841142
24	0xbda3e391	-0.08002389
25	0xbce8bcd4	-0.028410353
26	0xbdac18f5	-0.08403198
27	0x3eb86002	0.36010748
28	0xbdba2fd3	-0.09091153
29	0xbd23971b	-0.039939027
30	0x3e521fa9	0.2051989
31	0xbdbdc702	-0.09266473
32	0x3f027d8d	0.50972825
33	0xbe6687c4	-0.22512728
34	0x3e1aebaa	0.15128961
35	0x3df97339	0.1218018
36	0xbe06a9b7	-0.13150679
37	0x3e8247d5	0.25445428
38	0x3e069b33	0.13145141
39	0xbe3cfc5c	-0.18455642
40	0xbe6a2439	-0.2286538
41	0xbefc92c6	-0.4933073
42	0x3d3abb66	0.045588873
43	0xbf08f31b	-0.5349595
44	0xbf14272e	-0.57872283
45	0x3ebd97bc	0.37029827
46	0x3f18f240	0.59744644
47	0xbd2b3176	-0.041795217
48	0xbc54d9c7	-0.012991375
49	0x3e2dc459	0.16969432
50	0xbdde3950	-0.10850775
51	0x3e52e703	0.20595936
52	0xbdebc325	-0.1151183
53	0x3d5e7449	0.054310117
54	0xbd5cf334	-0.053942874
55	0xbdada003	-0.084777854
56	0xbbd5d019	-0.0065250513
57	0x3d9e92ca	0.077428415
58	0x3f5a242f	0.8521146
59	0xbdde7f11	-0.1086408
60	0x3bb82d86	0.005620661
61	0xbd04e69c	-0.03244649
62	0xbc19e15f	-0.009392112
63	0xbda95002	-0.082672134
64	0x3e610de0	0.21977949
65	0xbdaced7a	-0.084437326
66	0xbdcd7c77	-0.100335054
67	0xbdab996f	-0.083788745
68	0xbdd58cbc	-0.104272336
69	0xbd5c550f	-0.053792056
70	0xbdd44edd	-0.103666045
71	0x3f1189e4	0.5685103

cnn.0.bias f4 [8]
0	0xbdc2225b	-0.09479209
1	0x3e930d0a	0.28720886
2	0xbda8b7d4	-0.082381874
3	0xbe5469aa	-0.20743433
4	0x3e540ce8	0.20708048
5	0xbd9356e8	-0.071943104
6	0x3e88a842	0.2669087
7	0x3dc4ae94	0.09603611

cnn.1.weight f4 [8]
0	0x3f5a3847	0.8524212
1	0x3f59df79	0.8510662
2	0x3f8431a7	1.0327653
3	0x3f5ce238	0.8628268
4	0x3f901d21	1.125889
5	0x3f70a40b	0.9400031
6	0x3f90bbaa	1.130727
7	0x3f5c4300	0.86039734

cnn.1.bias f4 [8]
0	0xbe4b59a0	-0.19858408
1	0xbecc2cbc	-0.3987788
2	0xbedee333	-0.43532714
3	0xbf00c05a	-0.50293505
4	0xbe526d28	-0.20549452
5	0xbea6ff5c	-0.326167
6	0xbea397f0	-0.31951857
7	0xbdd44aff	-0.10365867

cnn.1.running_mean f4 [8]
0	0x3ccea654	0.025225796
1	0x3f281597	0.65657943
2	0x3d77df58	0.06051573
3	0xbc25123f	-0.010075151
4	0xbe35201c	-0.1768803
5	0x3e4fd741	0.20296957
6	0x3ee1bc48	0.4408896
7	0x3e056bbb	0.13029377

cnn.1.running_var f4 [8]
0	0x3d90a634	0.07062951
1	0x3e151611	0.14559199
2	0x3d71ce2c	0.05903451
3	0x3d517917	0.05114087
4	0x3e5b6457	0.21424995
5	0x3db891c0	0.090121746
6	0x3d5dd978	0.054162472
7	0x3c81806c	0.015808307

cnn.4.weight f4 [16, 8, 3, 3]
0	0x3b863e0d	0.0040967525
1	0xbe6acff2	-0.22930887
2	0x3d822641	0.063549526
3	0xbd8520d8	-0.06500405
4	0x3c30c9d0	0.010790303
5	0xbd1c2c61	-0.03812826
6	0x3cbc3863	0.022976106
7	0x3e159ca5	0.14610536
8	0x3d6d3b55	0.05791791
9	0x3dadde84	0.08489707
10	0xbc3d4254	-0.011551458
11	0x3d4e6b48	0.05039528
12	0x3d770f97	0.060317602
13	0x3c88e232	0.01670942
14	0x3da87a9a	0.082265094
15	0xbdb218a2	-0.086961046
16	0x3d22d469	0.03975335
17	0xbdc15b22	-0.0944121
18	0x3e2d921a	0.16950265
19	0x3df4193a	0.11918874
20	0x3de716bd	0.11283634
21	0x3c634c7a	0.013873214
22	0x3e724be1	0.23661758
23	0xbb62a944	-0.0034585753
24	0xbe2b0c8b	-0.16704004
25	0xbe03d2e4	-0.12873417
26	0xbd4fc0ee	-0.0507211
27	0x3d9ffe0f	0.0781213
28	0xbd142d4a	-0.036176004
29	0xbc9100a5	-0.017700503
30	0xbd896edd	-0.067105986
31	0x3e02083f	0.12698458
32	0x3d374893	0.044746947
33	0xbe0ebe62	-0.13939813
34	0xbdf75980	-0.12077618
35	0xbd8b79e2	-0.06810357
36	0x3e28859b	0.16457216
37	0x3d9bc558	0.07606
38	0x3dc8fe8e	0.098141775
39	0xbe006678	-0.12539089
40	0xbdd7c530	-0.105356574
41	0xbdcf2e27	-0.10116225
42	0xbd0e6a03	-0.03476907
43	0xbde8a5f4	-0.11359778
44	0xbcbdb662	-0.023158256
45	0xbd233b94	-0.03985174
46	0x3c31bc3d	0.010848102
47	0x3c8dd92a	0.017315466
48	0x3cf727ff	0.030170439
49	0xbe003ce3	-0.12523226
50	0x3e18c51b	0.1491894
51	0xbdb42a28	-0.08797103
52	0x3dc95ee0	0.09832549
53	0x3dc5d687	0.096600585
54	0x3dff878d	0.12477026
55	0x3d5c16d0	0.053732693
56	0x3d86e3d3	0.06586423
57	0x3d027cfe	0.031857483
58	0x3e473252	0.1945279
59	0x3da8bf14	0.0823957
60	0x3c998f06	0.018744957
61	0xbda10eea	-0.07864173
62	0xbe65c5a5	-0.22438677
63	0xbdbfde88	-0.09368616
64	0xbe1f50e8	-0.15558207
65	0x3cd11548	0.025522843
66	0x3c905041	0.017616393
67	0x3e395ba8	0.1810137
68	0xbdfec2bf	-0.124394886
69	0x3cdc3134	0.02687893
70	0x3d02b7ae	0.03191345
71	0x3d475490	0.04866463
72	0x3de5e567	0.11225396
73	0x3d9c590a	0.0763417
74	0x3ccd504f	0.025062708
75	0xbb6103bc	-0.0034334501
76	0xbdafb5e5	-0.085796155
77	0xbd087c6d	-0.033321787
78	0x3c09d54f	0.008412673
79	0xbc5c2a02	-0.01343775
80	0xbcd13c33	-0.0255414
81	0x3d59371c	0.053031072
82	0x3e9baeac	0.30406702
83	0x3dc24ea3	0.09487655
84	0xbcd39b70	-0.025830954
85	0x3cd0dae6	0.025495004
86	0x3be9b361	0.0071319793
87	0x39b3326c	0.00034179108
88	0x3e228a58	0.15873086
89	0xbc72f5d0	-0.014829114
90	0x3dacaff1	0.08431996
91	0x3e3eada0	0.1862092
92	0xbdf0c518	-0.11756343
93	0x3a6c4eae	0.000901441
94	0x3d236efd	0.03990077
95	0xbc886150	-0.016647965
96	0xbc172de4	-0.00922725
97	0x3c692ce5	0.014231895
98	0x3d82227f	0.06354236
99	0x3e3810a1	0.17975093
100	0x3e63a771	0.22231843
101	0x3e36a126	0.17834911
102	0xbcace31b	-0.021104386
103	0x3e137c2c	0.14402837
104	0x3c2662b1	0.010155366
105	0x3e13f194	0.14447623
106	0x3d8644b7	0.06556075
107	0x3e20b588	0.15694249
108	0x3d818951	0.06325019
109	0xbc9542b5	-0.018220285
110	0xbd3ce2d0	-0.046114743
111	0xbcf7e3cb	-0.030259987
112	0xbd0dfd99	-0.034665678
113	0xbe2db6c1	-0.16964246
114	0x3cc4e75e	0.024036106
115	0x3ccf7c55	0.02532784
116	0xbe02c884	-0.12771803
117	0x3e2a5032	0.16632155
118	0x3ea30a2d	0.318437
119	0x3df11e82	0.11773397
120	0xbd79e6ed	-0.061011244
121	0x3d2356c3	0.039877664
122	0x3dd1e5b0	0.102488875
123	0x3db90a7c	0.09035203
124	0x3c6f260d	0.014596474
125	0x3df80cfc	0.121118516
126	0x3e1cf99b	0.15329592
127	0x3ea24732	0.31694943
128	0xbcc705ef	-0.024294822
129	0xbd3b1a03	-0.045679104
130	0xbd1459c0	-0.036218405
131	0x3db27617	0.0871393
132	0x3d8c87da	0.06861849
133	0xbdd859c2	-0.10563995
134	0x3ddcb8f5	0.10777465
135	0xbe1bf6df	-0.15230893
136	0xbc685343	-0.014180007
137	0x3c58e487	0.013238079
138	0xbbcd751d	-0.0062700645
139	0xbd509ca6	-0.05093064
140	0xbd22712b	-0.039658707
141	0xbe607d5e	-0.21922824
142	0xbc9631db	-0.01833432
143	0x3e101639	0.14070977
144	0xbd6166b3	-0.055029582
145	0xbd7cd50d	-0.06172662
146	0x3d772511	0.060338084
147	0xbe3509dd	-0.17679544
148	0xbd90113e	-0.07034539
149	0xbdd49a0b	-0.10380944
150	0xbe0b826e	-0.13623974
151	0xbe523698	-0.20528638
152	0xbdf47556	-0.119364426
153	0xbd0e7b79	-0.03478572
154	0x3d961f4b	0.073301874
155	0x3e0f461d	0.1399159
156	0xbd9eb6b0	-0.077496886
157	0xbbdc2619	-0.006718409
158	0xbd9f1a79	-0.07768721
159	0x3dfd7d1b	0.123773776
160	0x3dc20921	0.094743975
161	0xbdb00e00	-0.0859642
162	0xbd5bc88c	-0.053658053
163	0xbcf923fc	-0.030412666
164	0xbc93060c	-0.01794722
165	0x3dbe1411	0.09281171
166	0x3b991b06	0.004672411
167	0xbd77b13b	-0.060471755
168	0x3de91e1e	0.113826975
169	0xbd8969da	-0.06709643
170	0x3d91ebde	0.07125066
171	0x3df39d64	0.11895254
172	0x3db1ac40	0.08675432
173	0xbdaad6bb	-0.08341738
174	0xbc0d71d3	-0.008633095
175	0x3cefa9b8	0.029255733
176	0xbe2b8383	-0.16749386
177	0xbbab42e2	-0.005226479
178	0x3d5fdf32	0.054656215
179	0xbc6ef79f	-0.014585405
180	0xbca33d21	-0.01992661
181	0xbca41d78	-0.020033583
182	0xbc7fa580	-0.015603423
183	0xbd81b897	-0.06334036
184	0x3ddb504e	0.10708676
185	0x3e2d34df	0.169147
186	0x3d298e38	0.041395396
187	0x3df37c62	0.118889585
188	0x3e085ed3	0.13317423
189	0x3dbcadc7	0.09212833
190	0xbc21cf1c	-0.009876039
191	0x3dfb2cf4	0.122644335
192	0xbdc4fe65	-0.096188344
193	0xbe289ee9	-0.1646687
194	0xbd6deb8c	-0.058085963
195	0xbc9039ac	-0.017605625
196	0xbd94b193	-0.07260432
197	0xbd169abe	-0.036768667
198	0xbbffcd9c	-0.007806493
199	0xbdd477ee	-0.10374437
200	0xbdcd55ad	-0.10026107
201	0xbba62fa7	-0.0050715986
202	0xbe6e8a37	-0.23294912
203	0xbe930b24	-0.28719437
204	0x3cc276bc	0.023738258
205	0xbd92b149	-0.07162721
206	0xbcc800fc	-0.024414532
207	0x3d64efab	0.055892628
208	0x3da0f69c	0.07859537
209	0xbe0def8e	-0.13860914
210	0x3b9bf71f	0.0047596837
211	0xbe2f5c04	-0.17124945
212	0xbe90841e	-0.28225797
213	0xbdc220ff	-0.0947895
214	0x3d9fa1ef	0.07794558
215	0x3e145647	0.14486037
216	0x3de1ab5c	0.11019012
217	0x3b1eaa3b	0.0024210352
218	0xbd868e4e	-0.06570111
219	0x39ed2eff	0.00045239177
220	0xbdaf6891	-0.08564866
221	0xbdc49cb7	-0.096002035
222	0xbe309831	-0.17245556
223	0xbecd4425	-0.40091053
224	0xbd850857	-0.06495731
225	0x3de50707	0.11182981
226	0xbd28c0b0	-0.041199386
227	0x3c3623d4	0.0111169405
228	0x3e39e0e9	0.18152203
229	0x3db17319	0.08664531
230	0xbd8d0a35	-0.068867125
231	0x3dfda556	0.12385051
232	0xbddf681c	-0.10908529
233	0x3e033d6a	0.12816396
234	0xbcfbf353	-0.030755674
235	0xbda52279	-0.08063216
236	0xbd74b6f1	-0.05974478
237	0xbe49dedd	-0.19713922
238	0xbe238c49	-0.15971483
239	0xbe5657ac	-0.20931882
240	0x3d0830d3	0.033249687
241	0xbe0ed9cf	-0.13950275
242	0xbc49c6ae	-0.012315435
243	0x3e07db1b	0.13267176
244	0x3d984a2f	0.074360244
245	0x3c85a0f8	0.016312107
246	0x3d9a94da	0.075479224
247	0x3d59bf5c	0.05316101
248	0xbe14e4af	-0.14540361
249	0x3baec932	0.005334043
250	0x3dcb73a5	0.09934167
251	0x3dca2cb5	0.098718084
252	0xbdbaa137	-0.091127805
253	0xbdc72feb	-0.097259365
254	0xbdd8dae1	-0.10588623
255	0xbe07c5ab	-0.13258998

cnn.4.bias f4 [16]
0	0xbc732afc	-0.014841791
1	0x3d541edb	0.05178724
2	0xbc0be4ff	-0.008538484
3	0x3cc4b127	0.024010254
4	0xbd259f60	-0.040435195
5	0xbdf8da8b	-0.12151059
6	0xbbe26128	-0.0069085546
7	0x3c596508	0.013268717
8	0x3d171780	0.036887646
9	0xbc87e79c	-0.016589932
10	0x3b47d396	0.0030491105
11	0xbd17459b	-0.036931615
12	0x3d47df25	0.04879679
13	0xbd21c8de	-0.039498203
14	0xbbceaf0b	-0.006307488
15	0x3d40a330	0.047030628

cnn.5.weight f4 [16]
0	0x3f84e2c0	1.0381699
1	0x3f8179ad	1.0115258
2	0x3f6ff602	0.93734753
3	0x3f82f27b	1.0230249
4	0x3f997e4d	1.1991669
5	0x3f958dc8	1.1683893
6	0x3f8e310e	1.110872
7	0x3f8fd7c6	1.1237724
8	0x3f9b9db0	1.2157497
9	0x3fb5d1c4	1.420464
10	0x3f9345e7	1.1505708
11	0x3fb2484c	1.3928313
12	0x3f959493	1.1685966
13	0x3f9eb699	1.2399474
14	0x3f82a08d	1.0205246
15	0x3f8c1f5c	1.094707

cnn.5.bias f4 [16]
0	0xbe0140dc	-0.12622398
1	0xbe31a4df	-0.1734805
2	0xbe1acd0f	-0.15117286
3	0xbddabb19	-0.10680217
4	0xbde0eb10	-0.109823346
5	0xbdb0211a	-0.086000636
6	0xbd90f4c6	-0.07077937
7	0xbdfefc54	-0.124504715
8	0xbd7d77a8	-0.06188169
9	0xbc586441	-0.013207496
10	0xbdbdb36a	-0.09262736
11	0xbd607c6b	-0.054806154
12	0xbe4a1e0d	-0.19738026
13	0xbddebdbc	-0.10876033
14	0xbe3afee1	-0.18261291
15	0xbde63964	-0.11241415

cnn.5.running_mean f4 [16]
0	0x3e7f8a8a	0.24955192
1	0x3f950792	1.1642935
2	0xbf507880	-0.8143387
3	0xbf8552fe	-1.0415952
4	0x3f1de28c	0.6167381
5	0x3f48999f	0.7835941
6	0xbf4cd874	-0.8001778
7	0x3ec02f32	0.37536007
8	0x3eca3e2a	0.39500552
9	0x3f28899c	0.65834975
10	0xbedef476	-0.43545884
11	0xbf27f36f	-0.65605825
12	0xbed29b8e	-0.41134304
13	0x3ccf33e6	0.025293302
14	0x3f263248	0.64920473
15	0xbe948065	-0.29004207

cnn.5.running_var f4 [16]
0	0x3e80d7b2	0.25164562
1	0x3fac2014	1.344729
2	0x3f6ce7e1	0.9254132
3	0x3ef11446	0.4708578
4	0x3e1bb4c2	0.15205672
5	0x3e6c1b32	0.23057249
6	0x3efec67c	0.49760807
7	0x3f05e177	0.5229716
8	0x3e20ba67	0.15696107
9	0x3e14b37f	0.14521597
10	0x3eafedec	0.34361207
11	0x3e19f056	0.15033087
12	0x3e730358	0.23731744
13	0x3df45ac7	0.11931377
14	0x3edef8db	0.43549237
15	0x3e36cb44	0.17850977

temporal_encoder.weight_ih_l0 f4 [96, 240]
0	0xbdec8cd7	-0.115503006
1	0xbdbd794c	-0.09251651
2	0xbdb01cf4	-0.08599272
3	0x3d3a3e65	0.04546966
4	0xbb710766	-0.0036778091
5	0xbd38c0cd	-0.045105744
6	0xbcb42bd1	-0.02199355
7	0x3dab744c	0.08371791
8	0x3dd2db8a	0.1029578
9	0xbe3b5586	-0.18294343
10	0xbc011eb6	-0.007880857
11	0xbdb4bc44	-0.08824971
12	0x3e10b251	0.14130522
13	0xbd07a3b6	-0.03311511
14	0xbd6b4370	-0.05743736
15	0xbe1bfffb	-0.15234368
16	0x3cfbd6dc	0.030742101
17	0xbd1b50e2	-0.037918933
18	0xbd8053dc	-0.06265995
19	0xbba5b680	-0.005057156
20	0xbe3530f8	-0.17694461
21	0xbe916650	-0.2839837
22	0x3dc0a162	0.09405781
23	0xbd3ff630	-0.046865642
24	0xbc5ad5f9	-0.013356679
25	0xbe492f61	-0.1964698
26	0xbe4e8fba	-0.20172015
27	0x3dbce05e	0.09222482
28	0xbe123a63	-0.14280085
29	0xbdfbf0f1	-0.12301815
30	0x3e55bd84	0.20873076
31	0x3e04046d	0.12892313
32	0x3e0d7a21	0.1381612
33	0xbd9d6064	-0.07684401
34	0x3d922a1d	0.07136939
35	0x3dcf7c12	0.101310864
36	0x3cfc873b	0.030826202
37	0x3ea03759	0.31292227
38	0xbd24272f	-0.04007643
39	0x3e989e61	0.29808334
40	0x3e9782d2	0.29591995
41	0x3e72235e	0.23646304
42	0xbd422966	-0.047402762
43	0xbdd534ae	-0.104104385
44	0xbd929dbc	-0.07158992
45	0x3d48289f	0.048866864
46	0xbd4637a1	-0.048392896
47	0x3caf21e1	0.02137846
48	0x3e5ea2de	0.21741816
49	0x3dedf2d7	0.11618584
50	0x3e1c5414	0.15266448
51	0x3d428245	0.047487516
52	0x3dd53268	0.10410005
53	0x3e6ad554	0.2293294
54	0x3ee6ac24	0.45053208
55	0x3ea26de0	0.31724453
56	0x3bb02903	0.0053759827
57	0x3a61ae91	0.0008609081
58	0x3e1798fb	0.14804451
59	0x3e723ed7	0.23656784
60	0x3a1af7c2	0.00059115526
61	0xbe31bc14	-0.17356902
62	0xbd88d29c	-0.066807956
63	0xbd972eb5	-0.073819555
64	0xbe261d50	-0.1622212
65	0xbdc5d78e	-0.096602544
66	0x3cf280e7	0.029602481
67	0xbdab8c1e	-0.083763346
68	0xbe5b283c	-0.21402067
69	0x3d6bdb53	0.05758221
70	0xbd649d6e	-0.0558142
71	0xbe43c409	-0.1911775
72	0xbd6cc86e	-0.057808332
73	0xbda9afd5	-0.082854904
74	0x3cace8b4	0.021107055
75	0xbe576d04	-0.2103768
76	0xbde2544e	-0.11051236
77	0xbd47b2fc	-0.048754677
78	0xbd3dc28a	-0.046328105
79	0xbd9bcdc3	-0.07607605
80	0xbd9e0aaa	-0.07716878
81	0xbdf5cd8b	-0.12002095
82	0xbdfb26cc	-0.12263259
83	0xbdd5d3bd	-0.104407765
84	0x3cf10c99	0.029424952
85	0xbda61d52	-0.08111061
86	0xbd2bc593	-0.04193647
87	0xbe0198d9	-0.12655963
88	0x3d4e7e46	0.050413392
89	0xbe668695	-0.22512276
90	0xbcc57542	-0.024103764
91	0x3de8c5b2	0.113658324
92	0x3e36de48	0.17858231
93	0x3e402159	0.18762721
94	0x3da6d000	0.081451416
95	0xbd064ceb	-0.0327882
96	0x3d374ab7	0.044748988
97	0x3de3563b	0.111004315
98	0x3e17ac8d	0.14811917
99	0x3ef0a087	0.46997473
100	0x3ef57b78	0.47945762
101	0x3e3e5516	0.18587145
102	0x3e8bb69a	0.2728775
103	0x3e1496bc	0.14510626
104	0x3d05dc1e	0.032680623
105	0x3bd7bdaa	0.006583889
106	0xbd418c57	-0.04725298
107	0x3decb23f	0.11557435
108	0xbe67f9cf	-0.22653888
109	0xbd9da9bd	-0.07698391
110	0xbe3f85c6	-0.18703374
111	0xbda947cc	-0.08265647
112	0xbd3b1fa6	-0.04568448
113	0xbe10dfd7	-0.14147888
114	0x3d1cb07e	0.038254254
115	0xbe06c30b	-0.1316034
116	0xbe4d3549	-0.20039858
117	0xbe210101	-0.15723039
118	0xbe0f942d	-0.14021368
119	0xbd8d340b	-0.06894692
120	0x3e1dcd6a	0.1541039
121	0x3c3cf9d2	0.011534171
122	0xbd619253	-0.055071186
123	0x3e047a5b	0.129373
124	0x3d47eec0	0.048811674
125	0xbd09e544	-0.03366591
126	0x3dbf4858	0.0933997
127	0x3e012853	0.12613039
128	0x3e14690c	0.14493197
129	0x3cd2f12a	0.025749762
130	0x3cad9116	0.021187346
131	0x3e205569	0.15657581
132	0x3e4134c5	0.18867786
133	0xbdb8248e	-0.08991347
134	0xbd64c008	-0.055847198
135	0x3cf79163	0.030220693
136	0xbd7cbdc3	-0.06170441
137	0xbdb11ff8	-0.08648676
138	0xbe4a414a	-0.19751468
139	0xbe5271f5	-0.20551284
140	0xbbab7146	-0.005232009
141	0xbdd6e902	-0.104936615
142	0xbe6fb181	-0.23407556
143	0xbe361fda	-0.17785588
144	0xbd8ce330	-0.0687927
145	0xbe7415ba	-0.23836413
146	0xbd4e7639	-0.050405715
147	0xbda38de4	-0.07986048
148	0x3c2a1aec	0.010382395
149	0xbe4cb4db	-0.19990866
150	0x3e64101f	0.22271775
151	0xbd825689	-0.063641615
152	0x3db8e7fd	0.09028623
153	0xbdf46813	-0.11933913
154	0xbd964120	-0.0733664
155	0xbdde55ac	-0.10856184
156	0x3d9644bd	0.073373295
157	0x3da0e9ca	0.07857092
158	0x3e145038	0.14483726
159	0x3d811a17	0.06303804
160	0x3e9885cf	0.29789588
161	0x3e239413	0.15974455
162	0xbdac3091	-0.08407701
163	0x3d7520e1	0.05984581
164	0x3c954599	0.018221663
165	0x3d30f731	0.04320449
166	0xbdd8cc4f	-0.10585844
167	0xbde221a8	-0.11041576
168	0xbd21952f	-0.039448913
169	0x3ba60fa6	0.0050677834
170	0xbd2c7570	-0.042104185
171	0x3e2ce3a5	0.16883714
172	0x3e3d9f7a	0.18517867
173	0x3df11e19	0.11773319
174	0xbe1cd8de	-0.15317103
175	0x3d9c6c5e	0.07637857
176	0x3da7ea98	0.08199042
177	0xbd9a9d66	-0.075495526
178	0xbcc44ea7	-0.023963286
179	0xbb1e9f2a	-0.0024203756
180	0xbe03cc06	-0.12870798
181	0x3dcf252e	0.10114513
182	0xbe856e86	-0.26060885
183	0x3db6fca4	0.08934906
184	0x3d50bba6	0.050960205
185	0x3a9c27bf	0.0011913701
186	0xbcecac90	-0.028890878
187	0xbbea81bc	-0.007156579
188	0x3c8fe255	0.017563978
189	0x3e079ae3	0.13242678
190	0x3ec73bbf	0.3891277
191	0x3ec1d786	0.37859744
192	0x3e8b1562	0.2716475
193	0xbcb4875f	-0.022037206
194	0x3ddf3129	0.108980484
195	0x3dc003f3	0.09375753
196	0x3d9e6a0e	0.07735072
197	0x3d4cce3f	0.05000138
198	0xbcdff0af	-0.027336447
199	0xbdd5ef03	-0.104459785
200	0x3e43de3e	0.19127747
201	0xbdcd1d76	-0.10015385
202	0x3e360650	0.17775846
203	0xbc893ea5	-0.016753504
204	0x3e5d8747	0.21633635
205	0x3c8e72c5	0.01738871
206	0xbdf9200f	-0.12164318
207	0x3d944cea	0.07241233
208	0xbe1d982c	-0.1539008
209	0x3df11061	0.11770702
210	0xbd34c510	-0.044133246
211	0x3c8d921a	0.01728158
212	0x3d22d0fe	0.03975009
213	0x3d4c3cb9	0.049862597
214	0xbe00f4b8	-0.12593353
215	0x3d6d848a	0.057987727
216	0xbe872ff2	-0.26403767
217	0x3e2063fb	0.1566314
218	0x3d66efd3	0.056381058
219	0x3d13f27b	0.03611992
220	0xbe131245	-0.14362438
221	0x3d981b4b	0.07427081
222	0x3db2b046	0.08725028
223	0xbdfa6322	-0.12225939
224	0xbc1a2750	-0.009408787
225	0x3dcfbce3	0.10143449
226	0x3e1205e0	0.14260054
227	0xbc184e47	-0.0092960065
228	0xbd96f1be	-0.073703274
229	0x3e29d399	0.16584624
230	0xbd730334	-0.059329227
231	0x3d0f683a	0.035011508
232	0x3f25976e	0.6468419
233	0x3e4baf6c	0.19891137
234	0x3eb7d540	0.35904884
235	0x3dd9ed86	0.10641007
236	0x3e732b19	0.23746909
237	0x3c9921bf	0.01869285
238	0x3cc48e8c	0.023993753
239	0x3d1afe1e	0.03784
240	0x3f052ac0	0.52018356
241	0xbe5be114	-0.21472579
242	0xbeca1d36	-0.3947541
243	0x3d514a76	0.051096402
244	0x3d83e281	0.064396866
245	0xbd26258c	-0.04056315
246	0x3e151aa1	0.1456094
247	0x3de01cca	0.10942991
248	0x3cc3bf70	0.023894995
249	0x3db4741d	0.08811209
250	0x3d4b8648	0.049688607
251	0x3c062256	0.008186897
252	0x3e086bbe	0.1332235
253	0x3dc3a62e	0.09553181
254	0x3d37cc62	0.04487265
255	0x3e2c1677	0.16805445

temporal_encoder.weight_hh_l0 f4 [96, 32]
0	0x3e42a983	0.19009976
1	0x3eba0b32	0.36336666
2	0xbe91bf6a	-0.2846635
3	0x3a18bb0d	0.00058262126
4	0xbe73a400	-0.2379303
5	0x3e779675	0.24178489
6	0xbe7fec42	-0.24992469
7	0xbda8ee3a	-0.08248563
8	0xbe19384e	-0.14962885
9	0x3d270d36	0.040784083
10	0x3e599da3	0.2125154
11	0x3cb18506	0.021669876
12	0xbdadafa0	-0.084807634
13	0xbd3f9975	-0.046777207
14	0xbe00e00e	-0.1258547
15	0x3e7fe29a	0.24988785
16	0x3e0b765e	0.13619372
17	0xbdd85447	-0.1056295
18	0x3d848caa	0.06472142
19	0xbdfd994a	-0.12382753
20	0x3d537205	0.05162241
21	0xbcfd4b06	-0.030919563
22	0xbe804fd0	-0.25060892
23	0xbd864a6b	-0.06557163
24	0x3eb7139c	0.35757148
25	0xbdcf94bf	-0.10135793
26	0xbe6effaa	-0.23339716
27	0x3da7dc82	0.081963554
28	0xbc41c839	-0.011827522
29	0x3e03a362	0.12855294
30	0x3e877f10	0.26464128
31	0x3de59259	0.11209554
32	0xbe3d39c8	-0.18479073
33	0x3e8675a5	0.2626163
34	0xbdd014d1	-0.101602204
35	0xbe3aaeda	-0.18230763
36	0x3bbf69ba	0.005841461
37	0x3c14e046	0.009086674
38	0xbedb3268	-0.42811894
39	0xbe1722fb	-0.14759438
40	0xbbf5b695	-0.007498572
41	0xbe758bfe	-0.23979184
42	0xbdcc9a0f	-0.09990322
43	0x3d8ba2c7	0.06818157
44	0xbdc40bc2	-0.09572555
45	0x3db25946	0.08708434
46	0x3ecad766	0.3961746
47	0xbd57d916	-0.052697264
48	0x3d88b893	0.0667583
49	0xbcede11d	-0.029038006
50	0x3e6e651f	0.23280762
51	0xbc18536a	-0.009297231
52	0x3da5f77d	0.08103845
53	0xbe85ff57	-0.2617137
54	0x3eae4b1b	0.34041676
55	0x3d5cc506	0.053898834
56	0xbcea5758	-0.028606102
57	0x3e478246	0.19483289
58	0x3eb8152f	0.35953662
59	0x3e24f898	0.16110456
60	0xbe815ea8	-0.2526753
61	0x3e101a47	0.14072524
62	0xbd09bbd1	-0.03362638
63	0x3e8492ea	0.25893337
64	0xbc1c64af	-0.009545489
65	0xbe9f0593	-0.3105894
66	0xbe05db0b	-0.1307184
67	0x3d0824b5	0.03323813
68	0x3e7b3326	0.2453123
69	0x3d0c47b7	0.03424808
70	0xbf09fea3	-0.5390417
71	0xbe6ed772	-0.23324373
72	0x3e0e86d2	0.13918617
73	0xbee484f2	-0.4463268
74	0x3ea9ad97	0.3314025
75	0x3cd6a2d2	0.026200686
76	0xbe36bfad	-0.17846556
77	0xbea706bf	-0.32622334
78	0xbd8d352c	-0.06894907
79	0xbb123049	-0.0022306612
80	0xbea24dd9	-0.31700018
81	0x3e1faee3	0.15594058
82	0x3c67c72b	0.014146606
83	0xbea1a474	-0.3157078
84	0x3e4defd3	0.20111017
85	0x3d5b047a	0.053471066
86	0x3e2154d2	0.15755013
87	0x3e41342a	0.18867555
88	0x3eecfd85	0.4628717
89	0x3dce138d	0.10062323
90	0x3d09139c	0.033465967
91	0xbe2d1b67	-0.16904984
92	0x3d1f1b34	0.038844302
93	0xbe636168	-0.22205126
94	0xbd678e6e	-0.056532316
95	0x3deb0806	0.1147614
96	0xbe60808f	-0.21924041
97	0x3d18abea	0.037273325
98	0xbe4fc9a2	-0.2029176
99	0x3ef81345	0.484522
100	0xbec75452	-0.3893152
101	0x3e406163	0.1878715
102	0xbf27bc00	-0.6552124
103	0x3dd2236a	0.10260661
104	0x3e55ad9e	0.20867011
105	0xbde38526	-0.111093804
106	0x3d38b5f7	0.04509541
107	0x3c19a1b9	0.009376937
108	0x3e547961	0.20749427
109	0xbe259ead	-0.16173811
110	0x3d28b32c	0.041186497
111	0x3e04aa55	0.12955602
112	0x3dd4605f	0.10369944
113	0xbe3eb71d	-0.1862454
114	0xbe303110	-0.17206216
115	0x3e364281	0.17798807
116	0xbcbcc3c3	-0.023042565
117	0xbdf98818	-0.12184161
118	0x3c929a59	0.017895864
119	0xbd890c54	-0.066918045
120	0xbefdb6ec	-0.4955362
121	0x3e061ceb	0.13096969
122	0x3e308faf	0.17242311
123	0x3e05b2d8	0.13056505
124	0x3d06bb7d	0.032893647
125	0x3e27237b	0.16322128
126	0xbd90af0c	-0.070646375
127	0xbe8a9291	-0.27064946
128	0xbe0aa54c	-0.13539618
129	0x3d89a5e0	0.06721091
130	0x3e3cbc5b	0.18431227
131	0xbcafb77e	-0.0214498
132	0x3efc585a	0.49286157
133	0xbd935c8c	-0.07195386
134	0x3e415317	0.18879353
135	0x3f148773	0.5801918
136	0x3c0f4836	0.008745244
137	0xbe105958	-0.14096582
138	0xbe8a6d8f	-0.27036712
139	0x3e897439	0.26846483
140	0xbd84601d	-0.06463645
141	0x3d4724f4	0.048619226
142	0x3f01ba6a	0.5067507
143	0xbc1163a5	-0.008873855
144	0x3e401c5f	0.18760823
145	0xbe29cb62	-0.1658149
146	0xbe021729	-0.12704147
147	0x3ea4d124	0.32190812
148	0x3be14c69	0.006875564
149	0x3dc99864	0.09843519
150	0xbd11a817	-0.035560694
151	0x3c5b83df	0.01339814
152	0xbd545688	-0.051840335
153	0xbdaf3083	-0.08554175
154	0x3ce38b6a	0.027776439
155	0xbdd49c70	-0.103814006
156	0xbc1bdd04	-0.009513143
157	0x3d1e9dc7	0.038724687
158	0xbdf864bf	-0.12128591
159	0xbe91be59	-0.28465536
160	0xbd1b9ad3	-0.03798945
161	0x3e08ee96	0.13372263
162	0xbe0caf03	-0.13738637
163	0x3d49c7a1	0.049262647
164	0xbeccffd8	-0.40038943
165	0xbdb86cf2	-0.09005155
166	0xba86995a	-0.0010269091
167	0x3dce3de4	0.100703984
168	0xbe81b6bc	-0.25334728
169	0x3de328ab	0.11091741
170	0x3ee3bf30	0.44481802
171	0xbd05e174	-0.032685712
172	0xbbf8cfbc	-0.0075931232
173	0x3c171f07	0.009223706
174	0x3e334c22	0.17509511
175	0xbe2c794f	-0.1684315
176	0x3d3e27ca	0.046424665
177	0x3d0963c9	0.03354243
178	0x3dfb89d0	0.12282145
179	0x3e6818a0	0.22665644
180	0x3e14b3db	0.14521734
181	0xbe0136a8	-0.12618506
182	0xbdb75ba0	-0.08953023
183	0x3db42a76	0.08797161
184	0x3e7e9305	0.24860771
185	0xbe29e4ea	-0.1659123
186	0xbed1e3cc	-0.40994108
187	0xbbe35423	-0.00693752
188	0x3dae6cb8	0.0851683
189	0x3ed20555	0.41019693
190	0x3ec05612	0.37565666
191	0xbe57e955	-0.21085103
192	0xbeeb3c40	-0.45944405
193	0x3d6166ce	0.055029683
194	0xbd6fe016	-0.058563314
195	0xbb3be081	-0.002866775
196	0xbc7bda17	-0.015371821
197	0x3e25d393	0.1619399
198	0x3da9798c	0.08275136
199	0x3e8792c7	0.2647917
200	0x3e427fac	0.18994015
201	0x3cc93666	0.024562072
202	0xbdba1591	-0.09086145
203	0x3e2d737a	0.16938582
204	0x3deb3c4d	0.11486111
205	0xbdb443df	-0.08802008
206	0x3ef5b393	0.47988567
207	0x3e809872	0.25116307
208	0x3e89828e	0.26857418
209	0xbdacebe9	-0.08443434
210	0x3cf3a32f	0.029740898
211	0x3ec9555a	0.3932293
212	0xbd67740b	-0.05650715
213	0xbe97ae8c	-0.29625356
214	0xbd886feb	-0.06661972
215	0xbd46030c	-0.04834275
216	0x3d909b10	0.07060826
217	0xbe38b581	-0.18037988
218	0xbd92ef1a	-0.07174511
219	0x3d35b387	0.044360664
220	0x3d7607f3	0.060066175
221	0x3e6fbbf3	0.2341154
222	0xbe1d9aa5	-0.15391023
223	0x3d4caf38	0.04997179
224	0x3d24d314	0.040240362
225	0x3de4ea34	0.11177483
226	0x3e15e1d3	0.14636926
227	0x3dc7f4f9	0.09763522
228	0xbd4f630c	-0.050631568
229	0x3d4d9d95	0.05019911
230	0x3e437b6b	0.19090049
231	0x3ee83ab0	0.45357275
232	0xbe299f22	-0.1656461
233	0x3ec9ec48	0.3943808
234	0x3cef11f9	0.029183375
235	0xbc05fbe2	-0.008177729
236	0x3e2e7234	0.17035753
237	0x3e3d75b8	0.18501937
238	0x3d58cf3c	0.05293201
239	0x3e765f8c	0.24059886
240	0x3e55d9ef	0.20883916
241	0xbdfec5e0	-0.124400854
242	0xbe091448	-0.13386643
243	0x3e17316f	0.14764951
244	0xbd9402d8	-0.07227105
245	0x3d043c69	0.032284174
246	0x3e480194	0.19531852
247	0xbdf59412	-0.11991133
248	0xbe574767	-0.21023332
249	0xbd867899	-0.06565971
250	0xbf120ce0	-0.57050896
251	0x3d7fabc2	0.06241966
252	0xbb38acd9	-0.0028179197
253	0x3d9bb454	0.07602754
254	0x3d9c158a	0.07621296
255	0x3c901961	0.017590227

temporal_encoder.bias_ih_l0 f4 [96]
0	0x3e8a65c3	0.27030763
1	0xbc2d7595	-0.010587116
2	0xbdc0d03e	-0.09414719
3	0xbddf53b5	-0.10904638
4	0x3d321eff	0.04348659
5	0xbc19173e	-0.00934392
6	0x3c7eee01	0.015559674
7	0x3d8d7594	0.06907192
8	0x3e1a80e4	0.1508823
9	0xbde76f99	-0.113005824
10	0x3e3c1323	0.18366675
11	0x3e2369ea	0.15958372
12	0x3ddae70f	0.10688602
13	0x3dd4419f	0.10364079
14	0x3e3dac8f	0.18522857
15	0x3db0aa99	0.08626289
16	0xbcbfc16a	-0.023407657
17	0xbdf1d74e	-0.11808644
18	0x3b3536d7	0.0027651095
19	0x3cf21bd5	0.029554287
20	0x3daec806	0.08534245
21	0x3cb3f670	0.021968096
22	0x3b24e4b8	0.002516074
23	0xbe116bd5	-0.14201291
24	0xbda13e35	-0.07873193
25	0xbd33b2d5	-0.04387172
26	0x3e3f5ebd	0.18688484
27	0x3db6e483	0.08930304
28	0xbc7aba94	-0.015303273
29	0x3dcb8770	0.09937942
30	0xbdb3b23e	-0.087742314
31	0x3e19c497	0.150164
32	0x3d4f2e4a	0.050581254
33	0xbd90eb0b	-0.07076081
34	0x3e431689	0.19051565
35	0xbd705054	-0.058670357
36	0x3e01cb3b	0.12675183
37	0x3d778497	0.060429182
38	0x3e17129b	0.14753191
39	0x3dbbb1af	0.0916475
40	0xbdd97442	-0.106178775
41	0xbc17f496	-0.009274622
42	0xbdb2a1d2	-0.08722271
43	0x3e1cd96d	0.15317316
44	0xbe23ce86	-0.15996751
45	0x3bd3fa54	0.0064690504
46	0xbd3462c4	-0.044039503
47	0x3dd6ca13	0.10487761
48	0x3bdd2277	0.0067484933
49	0x3c18c8d9	0.00932523
50	0xbac73721	-0.0015198925
51	0xbdb39c57	-0.08770054
52	0x3e5d1621	0.21590473
53	0xbc33340a	-0.0109377
54	0x3cf97acf	0.030454068
55	0x3d02b55b	0.031911235
56	0xbd989805	-0.074508704
57	0x3e03a950	0.12857556
58	0xbe3f5053	-0.18682985
59	0x3ce77c1e	0.028257426
60	0xbdced9f5	-0.10100166
61	0x3c8f5346	0.017495763
62	0x3d9b2d10	0.07576954
63	0x3e1501e0	0.14551497
64	0xbc3c6c3f	-0.011500417
65	0x3d453b22	0.048152097
66	0x3dbf8083	0.093506835
67	0xbe1eb19c	-0.1549744
68	0xbe6da664	-0.23208004
69	0xbe1b1cfd	-0.15147777
70	0xbce0c036	-0.027435403
71	0x3de353c8	0.110999644
72	0xbdd4f126	-0.10397558
73	0x3c019874	0.007909883
74	0x3dafa60c	0.08576593
75	0x3d7df9ae	0.06200569
76	0xbc8f3fda	-0.017486501
77	0xbe158253	-0.14600496
78	0xbc482d71	-0.012217865
79	0xbd5552e1	-0.052080993
80	0x3c9563d0	0.01823607
81	0xbca48d50	-0.020086914
82	0x3de9f401	0.11423493
83	0xbdda0353	-0.10645165
84	0xbd78a227	-0.060701516
85	0x3d844e82	0.06460287
86	0xbd554922	-0.052071698
87	0x3e2ddb80	0.16978264
88	0x3b82c288	0.003990475
89	0x3db7b198	0.0896942
90	0x3d6a0716	0.057135664
91	0xbdb1406a	-0.08654864
92	0xbe2acd0b	-0.1667978
93	0x3be5d7cf	0.007014252
94	0xbd35a2ad	-0.044344593
95	0xbbec12ee	-0.007204405

temporal_encoder.bias_hh_l0 f4 [96]
0	0xbd8c94e4	-0.06864336
1	0x3dc3bc70	0.09557426
2	0x3df9144e	0.12162076
3	0x3c1b6987	0.009485609
4	0x3e03e8ea	0.12881818
5	0x3d88f1b6	0.06686728
6	0x3df5514b	0.11978396
7	0x3db1b58d	0.08677206
8	0xbc904f60	-0.017615974
9	0xbd6f4d4c	-0.058423325
10	0x3e46025f	0.19336842
11	0xbdd86180	-0.10565472
12	0x3e091969	0.133886
13	0x3db97f0a	0.09057434
14	0x3c84b112	0.016197715
15	0x3d73b14a	0.059495248
16	0xbd05a58a	-0.032628573
17	0x3cea8ea7	0.028632475
18	0x3d7f1f72	0.062285848
19	0xbdc9d5a1	-0.098551996
20	0x3da3a1ba	0.07989831
21	0xbd7e5846	-0.062095903
22	0x3ea2a7c5	0.31768623
23	0x3c1eb056	0.009685596
24	0x3dec541c	0.1153948
25	0xbd6d4021	-0.057922486
26	0xbd50e4a1	-0.050999288
27	0x3e3027d2	0.1720269
28	0x3e4ebe59	0.201898
29	0xbe02f6ff	-0.12789534
30	0x3e189a30	0.14902568
31	0x3e41f124	0.18939644
32	0xbd75d125	-0.06001391
33	0x3de84fd5	0.11343352
34	0xbdbe5ffb	-0.092956506
35	0x3df07e7c	0.11742875
36	0x3e1637b9	0.14669694
37	0x3de73eec	0.11291298
38	0x3c4709af	0.012148305
39	0xbe686ce5	-0.2269779
40	0xbccae634	-0.024767973
41	0x3c12448a	0.008927474
42	0xbd5ab8b3	-0.0533988
43	0xbdf2c8c2	-0.11854698
44	0x3cbc9099	0.023018168
45	0x3dc9807f	0.09838962
46	0x3ce81dea	0.028334577
47	0x3ccbfde9	0.024901347
48	0x3de9e580	0.11420727
49	0xbd1cc6ec	-0.038275644
50	0x3dec3816	0.11534135
51	0x3d13ef7a	0.036117055
52	0x3d97e11c	0.07415983
53	0x3e28246f	0.16420148
54	0xba99cb6b	-0.0011733597
55	0xbda73bba	-0.08165689
56	0x3d964c48	0.07338768
57	0x3d95f842	0.07322742
58	0x3dbae663	0.09125974
59	0xbc22ad28	-0.009928979
60	0x3d2b63ef	0.04184335
61	0xbdc59f8d	-0.096495725
62	0xbdde2453	-0.10846772
63	0xbc8c7dd3	-0.017149841
64	0x3e2fda84	0.17173201
65	0x3c3885cd	0.011262369
66	0xbe49bfab	-0.19702022
67	0xbbeab907	-0.0071631703
68	0xbd36c7ef	-0.044624265
69	0xbd81cef0	-0.06338298
70	0x3e59ba03	0.21262364
71	0xbdbc2d80	-0.09188366
72	0x3cd6dace	0.026227381
73	0xbe535654	-0.206384
74	0x3cf62fb9	0.030052053
75	0x3cdd5148	0.027016297
76	0xbd1495bf	-0.03627562
77	0xbdea83e5	-0.11450938
78	0x3d954429	0.07288391
79	0xbdcd8728	-0.10035545
80	0x3dca14a9	0.09867222
81	0x3e78006e	0.24218914
82	0xbe1af3fc	-0.15132135
83	0x3e21b25b	0.15790693
84	0x3bd0ac53	0.006368199
85	0x3d94fc65	0.07274703
86	0x3da685ed	0.08131013
87	0xbe71c26f	-0.23609327
88	0x3d7e4932	0.062081523
89	0xbd925e7a	-0.07146926
90	0x3e5d3399	0.21601714
91	0x3d62857a	0.055303074
92	0xbe3fb840	-0.1872263
93	0xbd1bef84	-0.038070217
94	0xbd4e91dd	-0.050432075
95	0xbe552013	-0.20813017

temporal_encoder.weight_ih_l0_reverse f4 [96, 240]
0	0x3e6540fa	0.22388068
1	0xbe0c39e4	-0.13693959
2	0xbeed3193	-0.46326885
3	0x3d90108b	0.07034405
4	0x3e5acf75	0.21368201
5	0x3ea88d2a	0.329202
6	0xbcb08dce	-0.021551993
7	0x3c91d796	0.017802995
8	0x3e088656	0.13332495
9	0xbe196534	-0.14980012
10	0xbdc83980	-0.09776592
11	0xbda88d1a	-0.08230038
12	0xbaeb836c	-0.0017968244
13	0x3bd4b85b	0.0064917034
14	0x3b34b824	0.0027575577
15	0xbd6e963a	-0.058248736
16	0x3c74db88	0.014944918
17	0xbed2a175	-0.41138807
18	0x3ebf97b6	0.37420434
19	0x3e56a45a	0.20961133
20	0x3db8076b	0.0898579
21	0x3eaf19cc	0.3419937
22	0x3e19d392	0.15022114
23	0x3e4cfaf9	0.20017613
24	0xbe1c8060	-0.15283346
25	0xbe2202fb	-0.1582145
26	0xbe613457	-0.21992622
27	0x3c26b2b3	0.010174441
28	0xbcb41596	-0.02198295
29	0xbc66fd37	-0.014098457
30	0x3ddf2751	0.10896171
31	0xbcdb3229	-0.026757317
32	0x3ba2c08d	0.0049668015
33	0xbd6a7c00	-0.057247162
34	0xbdbf689c	-0.093461245
35	0xbd4a7355	-0.049426395
36	0x3e009765	0.12557752
37	0x3da52074	0.080628306
38	0xbe1865b4	-0.14882547
39	0xbdf88511	-0.121347554
40	0x3e03ef7a	0.12884322
41	0xbd8875e5	-0.066631116
42	0x3ddd148d	0.107949354
43	0xbe1a96c9	-0.15096582
44	0x3dd2ed9d	0.102992274
45	0xbe28cd0b	-0.16484468
46	0xbdf87a74	-0.12132731
47	0xbe3c9c3a	-0.1841897
48	0xbe346ede	-0.17620417
49	0xbde7bb9a	-0.11315079
50	0x3d2ec7c5	0.042670984
51	0x3d2a97e5	0.041648764
52	0x3de06e96	0.109585926
53	0xbc8f4caa	-0.017492611
54	0x3d3be919	0.045876596
55	0xbaf48a3a	-0.0018656917
56	0xbdcd55cd	-0.10026131
57	0xbc8e61e7	-0.017380668
58	0xbc8ded64	-0.01732511
59	0x3d4ce5e4	0.05002393
60	0xbe391a1f	-0.1807637
61	0x3e075309	0.13215269
62	0x3e46d0f7	0.19415651
63	0x3e3f65d8	0.18691194
64	0x3d15bbeb	0.036556166
65	0xbdf79338	-0.120886266
66	0xbe9e554c	-0.3092445
67	0xbe29f97c	-0.16599077
68	0xbdceed31	-0.101038344
69	0x3e4c5f78	0.19958293
70	0x3cdffe97	0.027343078
71	0x3c071aef	0.008246168
72	0x3e08cf7f	0.13360403
73	0x3dd96002	0.10614015
74	0x3d87b9ef	0.06627261
75	0x3eb146ce	0.34624332
76	0xbd6b08d6	-0.057381473
77	0x3eaec250	0.34132624
78	0x3ec0099b	0.37507328
79	0x3b88cd0b	0.0041748337
80	0x3e3a61ca	0.18201366
81	0xbdd7c6f1	-0.10535992
82	0xbe0d1fe6	-0.137817
83	0x3c0edd72	0.008719789
84	0xbdaf934d	-0.08573017
85	0x3d1ed696	0.038778864
86	0x3c06f56c	0.008237224
87	0xbb9d285f	-0.0047960724
88	0x3cac2035	0.021011451
89	0x3a38960e	0.0007041403
90	0xbc9a584e	-0.018840935
91	0xbe0961ef	-0.13416265
92	0xbdc9dc80	-0.0985651
93	0x3dee3f88	0.116332114
94	0x3ecf3570	0.40470457
95	0x3e359057	0.17730843
96	0xbda07282	-0.07834341
97	0x3dc1acb5	0.094567694
98	0xbd501db7	-0.05080959
99	0xbd17e266	-0.037081145
100	0xbd9bf087	-0.07614236
101	0x3d411601	0.047140125
102	0xbe11f323	-0.14252906
103	0xbe6bf8e5	-0.23044164
104	0x3d04923a	0.032366015
105	0x3e11b078	0.14227474
106	0x3e3836af	0.1798961
107	0x3e49b856	0.19699225
108	0x3e43cbe0	0.19120741
109	0x3def9f59	0.11700315
110	0x3e4663f6	0.1937407
111	0xbe18b315	-0.14912064
112	0xbb16cea9	-0.0023011363
113	0xbe2678b6	-0.16256985
114	0xbc982bf9	-0.018575655
115	0x3dd208e8	0.10255605
116	0xbca91313	-0.020638978
117	0xbcdc2e3a	-0.026877511
118	0x3e332236	0.17493519
119	0x3cad6785	0.021167526
120	0xbd4714f1	-0.048603956
121	0xbd2013ea	-0.03908149
122	0x3e84b130	0.25916433
123	0x3bb9d953	0.005671659
124	0xbe1168de	-0.1420016
125	0xbdd8a953	-0.10579171
126	0xbd655b58	-0.055995315
127	0xbd3a4c7e	-0.045483105
128	0x3d9154f1	0.070962794
129	0xbc23a956	-0.009989103
130	0x3b9c41a2	0.004768566
131	0x3df67490	0.12033951
132	0x3be0b9cb	0.0068580857
133	0xbd7292c6	-0.059222005
134	0x3e0925a6	0.13393268
135	0x3e71f7be	0.23629662
136	0x3e9ea404	0.3098451
137	0x3d850e66	0.06496887
138	0xbe18477b	-0.14871018
139	0xbe453a0e	-0.19260427
140	0x3e064751	0.13113143
141	0xbdf90285	-0.12158684
142	0x3d24c294	0.040224627
143	0x3cdc072b	0.026858887
144	0x3d6602ce	0.05615502
145	0x3e606733	0.21914367
146	0x3c647901	0.013944865
147	0x3dcf4ecd	0.10122452
148	0x3e3aa61a	0.18227425
149	0x3dde7c84	0.10863593
150	0xbdb80fb8	-0.08987373
151	0x3dfc5eb6	0.12322752
152	0x3e2ad8a9	0.16684212
153	0xbdcd748a	-0.10031994
154	0x3e8d5a1a	0.27607805
155	0x3e47f236	0.1952599
156	0xbe059dbe	-0.13048455
157	0xbdc8d193	-0.09805598
158	0x3d199dff	0.037504192
159	0xbe32f744	-0.17477137
160	0xbdad0fad	-0.084502555
161	0xbcf6eadf	-0.030141292
162	0xbdf084eb	-0.11744102
163	0xbdba08f6	-0.090837404
164	0x3cb0ef41	0.02159846
165	0xbd92d415	-0.07169358
166	0x3d3f0635	0.04663678
167	0xbd359c4c	-0.04433851
168	0x3e0db032	0.13836744
169	0xbda45f27	-0.08025961
170	0xbe2faf06	-0.1715661
171	0x3e15b3f2	0.14619425
172	0x3d1c07b9	0.038093302
173	0x3d88a9a6	0.06672983
174	0xbb6c5733	-0.0036062717
175	0xbe3c7d02	-0.18407062
176	0xbd22cfcb	-0.039748948
177	0x3d8c5dcf	0.0685383
178	0xbdc9c327	-0.098516755
179	0x3d2bc147	0.04193237
180	0xbdaa13d3	-0.083045624
181	0x3e806427	0.2507641
182	0xbdb8a732	-0.09016265
183	0x3c951503	0.018198496
184	0x3e61a68c	0.22036189
185	0x3e6f6bee	0.23381016
186	0x3dd92e11	0.106044896
187	0x3e016467	0.12635957
188	0xbdf99ba7	-0.121878915
189	0xbc5a9d0b	-0.013343106
190	0x3d84164b	0.064495645
191	0x3d03f9dc	0.032220706
192	0x3d0a042a	0.033695377
193	0x3c06bf89	0.0082243765
194	0x3d9effeb	0.07763656
195	0xbd8388bd	-0.06422565
196	0xbcb18b5a	-0.021672893
197	0x3e79d95c	0.24399322
198	0x3eeb0f84	0.45910275
199	0x3e835043	0.25647172
200	0xbdee119d	-0.11624453
201	0xb99f6351	-0.0003040084
202	0xbd9929a1	-0.07478643
203	0xbe06c950	-0.13162732
204	0x3da31b2c	0.07964167
205	0xbd3be9d2	-0.045877285
206	0x3dbbc92e	0.09169231
207	0xbd96f29e	-0.07370494
208	0x3cc5e804	0.024158485
209	0x3bd62cbd	0.006536095
210	0x3e8d0247	0.275408
211	0x3e9353cf	0.28774878
212	0x3e26452b	0.16237323
213	0x3d87b840	0.0662694
214	0xbd1ce889	-0.0383077
215	0x3e2eb7a3	0.1706224
216	0x3e098dab	0.13432948
217	0x3dbf513f	0.09341668
218	0xbd6577f0	-0.056022584
219	0xbd815100	-0.06314278
220	0xbe23a5b6	-0.15981182
221	0xbdd283c0	-0.102790356
222	0xbdc5345d	-0.09629128
223	0xbc872a34	-0.016499616
224	0x39e69737	0.00043981682
225	0xbd17216c	-0.036897108
226	0x3d3f52c6	0.0467098
227	0x3d277a57	0.040888157
228	0x3e82373c	0.25432765
229	0x3de2b541	0.11069728
230	0x3d9c87ee	0.07643114
231	0xbdae6da5	-0.08517007
232	0x3c81d78e	0.015849855
233	0xbdea49f0	-0.11439884
234	0x3dde0d8e	0.10842429
235	0x3d8791d3	0.06619611
236	0x3d24c62a	0.040228046
237	0x3dee778f	0.11643898
238	0xbc2d880c	-0.010591518
239	0x3dc1601f	0.09442162
240	0x3e41c224	0.18921715
241	0x3e95983d	0.2921771
242	0x3dd4de88	0.10394007
243	0x3e0069c9	0.12540354
244	0x3e1b2406	0.1515046
245	0x3c88cdf2	0.016699765
246	0xbe79fcbe	-0.2441282
247	0xbd99711e	-0.074922785
248	0x3b3ca5b7	0.0028785297
249	0x3d35e8e8	0.04441157
250	0xbe537463	-0.20649867
251	0xbe5c2a46	-0.21500501
252	0x3e7d856e	0.2475793
253	0x3e47d227	0.1951376
254	0x3e25e71e	0.16201445
255	0x3d9c3415	0.07627121

temporal_encoder.weight_hh_l0_reverse f4 [96, 32]
0	0x3f24a509	0.64314324
1	0xbd0df550	-0.034657776
2	0xbe65c297	-0.22437511
3	0x3db25fc5	0.08709673
4	0xbeca8a28	-0.3955853
5	0x3dd1795a	0.10228224
6	0x3ef06ac7	0.46956465
7	0x3e811199	0.25208738
8	0x3ea86797	0.32891533
9	0x3dda399a	0.10655518
10	0xbe7a685f	-0.24453877
11	0xbdb913ca	-0.090369776
12	0x3e2a50e6	0.16632423
13	0x3cf43a1d	0.029812867
14	0xbcc5e458	-0.024156734
15	0x3dd28571	0.10279358
16	0xbd56f30a	-0.052477874
17	0xbea3be42	-0.31981093
18	0x3eb107de	0.34576315
19	0xbd4a7000	-0.049423218
20	0xbd298178	-0.041383237
21	0x3e4e2c73	0.20134144
22	0x3dac544f	0.08414518
23	0xbd8b97ef	-0.068160884
24	0xbe5d627a	-0.21619597
25	0x3d2fd81f	0.04293072
26	0xbc84cd8c	-0.016211294
27	0x3e1d83bb	0.15382282
28	0x394d6808	0.00019589078
29	0xbd992a24	-0.07478741
30	0x3da030f3	0.07821836
31	0x3d97505e	0.07388376
32	0x3e280c50	0.16410947
33	0x3af12b16	0.0018399681
34	0x3d8c9fbb	0.06866404
35	0xbe4f7e76	-0.20263085
36	0x3d8c3799	0.06846542
37	0x3e3dbb3c	0.18528455
38	0xbe98c659	-0.29838827
39	0xbd444adf	-0.047922965
40	0xbe1b5d4e	-0.15172312
41	0xbdecf592	-0.11570276
42	0x3d80a9f3	0.06282415
43	0x3d5c554a	0.053792275
44	0x3dee91aa	0.11648877
45	0xbe3553eb	-0.17707793
46	0x3ed31717	0.41228554
47	0xbe72caf3	-0.23710231
48	0x3d36bda1	0.044614438
49	0x3e0243e1	0.12721206
50	0xbd8bb293	-0.0682117
51	0xbe610059	-0.21972789
52	0x3e090752	0.13381699
53	0x3d5b7237	0.05357572
54	0x3e2c3174	0.1681574
55	0x3e75d1e9	0.24005856
56	0xbe684d50	-0.22685742
57	0x3d7e3574	0.062062696
58	0x3e2facce	0.17155764
59	0xbb7401d6	-0.003723254
60	0x3cc9d9df	0.024640022
61	0x3d95d0d8	0.073152244
62	0xbe2bd6a2	-0.16781095
63	0xbca07eb5	-0.019591669
64	0xbe0347e4	-0.12820393
65	0x3d86c56f	0.06580626
66	0xbe96a957	-0.2942607
67	0x3d614f05	0.055007
68	0x3d52cbd7	0.051463928
69	0x3e3fa8a3	0.18716674
70	0x3e6a74ab	0.22896068
71	0xbd1cf14a	-0.03831605
72	0x3d8f081c	0.069839686
73	0x3e4d509e	0.20050284
74	0xbc9d30e6	-0.019188356
75	0xbd316a40	-0.04331422
76	0x3e7b9d92	0.24571827
77	0x3c908bcd	0.017644787
78	0x3dde14ba	0.10843797
79	0xbd72db84	-0.059291378
80	0x3e1e65d8	0.15468538
81	0x3bfda978	0.0077411495
82	0x3d5f3a83	0.05449916
83	0x3e736649	0.23769487
84	0xbdc0f26f	-0.094212405
85	0xbd7900aa	-0.06079165
86	0xbd765b13	-0.06014545
87	0xbd3dca7e	-0.04633569
88	0xbdd2b514	-0.10288444
89	0xbe07d90f	-0.13266395
90	0x3e2fad3b	0.17155926
91	0x3e7d235d	0.24720521
92	0x3da4b292	0.08041872
93	0x3cbacb6a	0.022802074
94	0x3dbf1b67	0.093313985
95	0x3ce45f8d	0.027877593
96	0x3d0d1c81	0.03445101
97	0xbd0c4956	-0.034249626
98	0xbd857848	-0.065170825
99	0xbcb1ccea	-0.021704156
100	0xbee8d4d0	-0.45474863
101	0xbe405d08	-0.18785489
102	0xbb1a16a3	-0.0023512028
103	0x3d973257	0.073826484
104	0x3ec34245	0.38136497
105	0x3db46063	0.08807447
106	0x3e59aa26	0.21256313
107	0xbdfb7150	-0.12277472
108	0x3ebd7616	0.37004155
109	0x3d8f4790	0.06996071
110	0x3df3037f	0.11865901
111	0x3df967c4	0.12177995
112	0xbe4b2714	-0.19839126
113	0xbe197aab	-0.149882
114	0x3ee1ff68	0.44140172
115	0xbe5c35d6	-0.21504912
116	0x3e81e9b6	0.2537362
117	0x3ea0147c	0.31265628
118	0x3e410f56	0.18853506
119	0xbe60cc45	-0.21952923
120	0x3e5e1487	0.21687518
121	0xbdf8e709	-0.121534415
122	0xbe82bace	-0.25533146
123	0x3e56ff26	0.20995769
124	0xbdfbf8a7	-0.12303286
125	0xbe189048	-0.14898789
126	0xba40d900	-0.0007356554
127	0xbe8b7094	-0.27234328
128	0x3d84905b	0.06472846
129	0x3d9a128b	0.07523068
130	0x3e4165b1	0.18886448
131	0xbdf2c3d3	-0.11853757
132	0xbe4c6a67	-0.19962464
133	0xbef82d2f	-0.48471972
134	0x3dbefbaa	0.09325345
135	0xbe2fd149	-0.1716968
136	0xbdce340d	-0.10068522
137	0xbdd52fa2	-0.10409476
138	0x3d9e585c	0.07731697
139	0xbd81f963	-0.06346395
140	0x3d21eb17	0.03953084
141	0x3dfaeef0	0.12252605
142	0x3d2df72c	0.04247205
143	0xbdfc93a8	-0.12332851
144	0x3e8b8f53	0.27257785
145	0xbd7f4afb	-0.062327366
146	0xbc9072a8	-0.017632797
147	0x3c914668	0.017733768
148	0xbdc4448f	-0.09583389
149	0xbca38a57	-0.019963427
150	0x3bfaf40d	0.0076584877
151	0x3d2b14e5	0.041767973
152	0x3e4aff17	0.19823872
153	0x3debd07f	0.11514377
154	0xbd5c76a0	-0.053824067
155	0x3d19ac7d	0.037518013
156	0xbe37ff5a	-0.17968503
157	0xbe23c1ac	-0.15991849
158	0xbdac9961	-0.08427692
159	0xbdf92818	-0.121658504
160	0x3e6a986f	0.22909711
161	0xbe214a71	-0.15751053
162	0xbd405474	-0.04695554
163	0x3e922c13	0.2854925
164	0x3d384cb4	0.044995025
165	0x3d7ff93e	0.062493555
166	0xbdee3f80	-0.116332054
167	0xbe34f06c	-0.17669839
168	0xbda0163c	-0.07816741
169	0xbd8d4300	-0.06897545
170	0x3e7c7d80	0.2465725
171	0xbea64325	-0.32473102
172	0xbe3cfe21	-0.18456317
173	0xbdb25005	-0.08706669
174	0xbdb162e1	-0.08661438
175	0xbe7f448c	-0.24928492
176	0x3e11c951	0.14236952
177	0x3e95aef3	0.29235038
178	0xbd8d6463	-0.06903913
179	0x3d9aeeb4	0.0756506
180	0xbe9d64d7	-0.30740997
181	0xbe260c35	-0.16215594
182	0xbe8895c3	-0.2667676
183	0x3db9f5ed	0.0908011
184	0x3ed613ab	0.4181188
185	0x3db4faa8	0.088368714
186	0xbc3f6bce	-0.0116834175
187	0x3e533456	0.20625433
188	0xbe086572	-0.13319948
189	0x3db72122	0.089418665
190	0x3ded2370	0.11579025
191	0xbdd4f2c6	-0.10397868
192	0xbeef1590	-0.46696138
193	0x3e203225	0.15644129
194	0xbdaa009e	-0.08300899
195	0xbdab30ac	-0.08358893
196	0x3e7001f6	0.23438248
197	0x3f0016c0	0.50034714
198	0x3ec0fdfa	0.3769377
199	0x3e689655	0.22713597
200	0xbdd9e821	-0.10639978
201	0xbd0bde26	-0.034147404
202	0xbd1f369f	-0.03887045
203	0xbdc28e80	-0.09499836
204	0xbed05610	-0.4069066
205	0x3e32a3ee	0.17445347
206	0xbda8054b	-0.082041346
207	0xbea8f826	-0.33001822
208	0xbe3cc1b4	-0.18433267
209	0xbe727739	-0.23678292
210	0xbd4014e3	-0.04689492
211	0x3cb4895e	0.022038158
212	0x3e297415	0.16548188
213	0x3db2ee41	0.087368496
214	0x3e313d02	0.17308429
215	0x3c965489	0.018350856
216	0x3e516268	0.20447695
217	0xbe206182	-0.15662196
218	0x3f0b030f	0.5430154
219	0xbd749574	-0.059712842
220	0xbd88364d	-0.06650982
221	0xbd0a2dd7	-0.033735123
222	0x3e38ad84	0.18034941
223	0x3e8ab8ad	0.2709402
224	0xbe05c951	-0.13065077
225	0x3e229565	0.15877302
226	0x3dcdec7e	0.10054873
227	0xbe9124e8	-0.2834847
228	0x3e4e754e	0.20161936
229	0xbc8f22fd	-0.017472738
230	0xbe82d101	-0.25550082
231	0x3e053609	0.13008894
232	0x3dacc5f8	0.08436197
233	0xbe117614	-0.142052
234	0x3dfdbb3f	0.1238923
235	0x3cca4469	0.024690824
236	0x3de4864e	0.11158429
237	0x3e3784e5	0.17921789
238	0xbe3d5207	-0.18488322
239	0x3dd18f86	0.10232453
240	0xbdae1646	-0.08500342
241	0xbea91b1c	-0.33028495
242	0x3b12f668	0.0022424702
243	0x3c787356	0.015164217
244	0x3dea4eef	0.11440837
245	0x3c93e945	0.018055568
246	0x3e7ca276	0.24671349
247	0xbcc0ff88	-0.023559347
248	0xbe2b6fb1	-0.16741826
249	0xbca5c2e0	-0.020234525
250	0x3defdba0	0.11711812
251	0xbe03555e	-0.12825534
252	0xbde789fb	-0.113056146
253	0xbdb0a03f	-0.086243145
254	0x3d1da141	0.03848386
255	0x3e5fdde3	0.21861987

temporal_encoder.bias_ih_l0_reverse f4 [96]
0	0xbd1b2d66	-0.037885092
1	0x3d23930b	0.039935153
2	0x3d473e3a	0.04864333
3	0x3c80d96a	0.015728671
4	0xbdffb3b8	-0.124854505
5	0xbccd5e53	-0.025069391
6	0xbd52ce8c	-0.05146651
7	0x3dde0d07	0.108423285
8	0x3db88a57	0.09010761
9	0x3c75c39e	0.015000252
10	0xbcdb49a5	-0.026768515
11	0x3d658106	0.05603125
12	0x3d92c624	0.071666986
13	0xbd8dea15	-0.06929413
14	0xbcfb0061	-0.03063983
15	0x3d2b8ba8	0.041881233
16	0x3cdc8809	0.026920335
17	0x3e27adf6	0.16374955
18	0x3e35216f	0.17688535
19	0xbd07802b	-0.033081215
20	0x3def84e0	0.11695266
21	0xbdcb468c	-0.09925565
22	0xbe0d718e	-0.13812849
23	0x3d5bfbbc	0.05370687
24	0x3e18651b	0.14882319
25	0x3d270818	0.040779203
26	0xbe0bb933	-0.13644867
27	0x3e1d8add	0.15385003
28	0xbcea38b3	-0.02859149
29	0x3d01f730	0.031729877
30	0x3d691be3	0.05691136
31	0xbdb95f95	-0.09051434
32	0xbd9b04b7	-0.07569259
33	0xbe0b0897	-0.13577496
34	0x3d084b74	0.033275083
35	0x3d88a04e	0.06671201
36	0x3c7a4794	0.015275855
37	0x3d0c502c	0.034256145
38	0xbdef2725	-0.11677388
39	0xbe11f1b3	-0.14252357
40	0x3e02500b	0.12725846
41	0x3deaa9d7	0.11458176
42	0xbd3c5327	-0.045977738
43	0xbd4e49d3	-0.050363373
44	0x3dac6ae1	0.08418823
45	0xbc2fb1f2	-0.010723578
46	0xbc62d9b6	-0.013845852
47	0x3e3f6494	0.18690711
48	0xbdc95bd0	-0.09831965
49	0xbdcabe1e	-0.09899543
50	0xbd024ef7	-0.031813588
51	0xba9b3375	-0.0011840897
52	0x3b0ca44c	0.0021460233
53	0xbca2c016	-0.019866984
54	0xbe2b257a	-0.16713515
55	0x3dbcde7e	0.092221245
56	0xbe571c9f	-0.21007012
57	0xbced1d0e	-0.028944518
58	0x3d81445c	0.06311867
59	0xbce71514	-0.028208293
60	0xbc14da05	-0.009085183
61	0xbe1f4942	-0.1555529
62	0x3ddecd83	0.10879042
63	0xbe2464ca	-0.16054073
64	0x3d0d38ff	0.034478184
65	0xbc978c39	-0.01849948
66	0x3e2d9dc2	0.16954711
67	0xbdec6b5d	-0.115439154
68	0x3d3df1d3	0.0463732
69	0xbe4001f3	-0.18750744
70	0x3e39edc3	0.18157105
71	0xbcacf0d1	-0.021110924
72	0xbdca16fc	-0.09867665
73	0x3dbb945f	0.09159159
74	0xbe287c14	-0.16453582
75	0xbdad4264	-0.08459929
76	0x3e33b243	0.1754847
77	0xbd23330e	-0.03984361
78	0x3e029709	0.12752928
79	0xbdeb1b35	-0.11479799
80	0x3d580101	0.052735332
81	0xbd756eb6	-0.059920035
82	0x3c60d1bf	0.013721882
83	0xbc3b69fa	-0.011438841
84	0xbda2231e	-0.07916854
85	0xbe23f7f3	-0.16012554
86	0x3d842bf9	0.064536996
87	0x3e0d7d89	0.13817419
88	0xbe0b3407	-0.13594066
89	0x3de28c97	0.11061972
90	0x3d2e9af8	0.04262826
91	0xbe0f02d9	-0.1396593
92	0xbe2cee6c	-0.16887826
93	0x3d772077	0.060333695
94	0x3e2ef8fa	0.17087165
95	0xbd3cf0b4	-0.04612799

temporal_encoder.bias_hh_l0_reverse f4 [96]
0	0xbde1f013	-0.11032119
1	0xbddb3620	-0.10703683
2	0xbda5296c	-0.08064541
3	0x3d6791d1	0.056535546
4	0x3dac4ff2	0.08413686
5	0x3dfb822c	0.12280688
6	0xbbc76d9c	-0.0060860645
7	0x3d46c940	0.04853177
8	0xbd217198	-0.039414972
9	0xbd137a47	-0.036005285
10	0xbbc9052d	-0.00613465
11	0x3d76c5e9	0.060247336
12	0x3e188fc8	0.14898598
13	0xbd5ad637	-0.053426947
14	0xbdb231e5	-0.08700923
15	0xbdd7d278	-0.105381906
16	0x3d67b972	0.05657334
17	0xbd120b19	-0.035655115
18	0x3dddccb9	0.108300634
19	0x3dd579de	0.10423635
20	0xbe0430b2	-0.12909201
21	0x3e5f197a	0.21787062
22	0x3df77881	0.12083531
23	0x3e19177f	0.1495037
24	0x3e0778ec	0.13229722
25	0xbe08fd03	-0.13377766
26	0xbe430ac0	-0.1904707
27	0x3dbd1ac7	0.09233623
28	0xbce63040	-0.02809918
29	0x3db29246	0.08719306
30	0xbd88c6b7	-0.06678527
31	0x3d041210	0.03224379
32	0xbd6d230f	-0.057894763
33	0xbcfd32d2	-0.030908022
34	0x3d982667	0.074292
35	0xbdcf67e2	-0.10127236
36	0xbe0f5cdf	-0.14000271
37	0x3d2dc87f	0.042427536
38	0xbd069edc	-0.032866344
39	0x3d46e912	0.048562117
40	0xbd64e445	-0.055881757
41	0xbdd83c14	-0.10558334
42	0x3acd7b40	0.001567699
43	0xbda2e3f1	-0.079536326
44	0x3e4521be	0.19251153
45	0x3debf565	0.11521415
46	0xbd63085e	-0.0554279
47	0x3e171eba	0.14757815
48	0xbe337de0	-0.17528486
49	0xbd60008c	-0.05468802
50	0x3e14f2af	0.14545701
51	0x3da55aa1	0.08073927
52	0x3d1eef13	0.038802218
53	0xbce0d9a6	-0.027447533
54	0xbd311131	-0.043229286
55	0x3d52cd10	0.051465094
56	0x39fcdd2a	0.00048229966
57	0xbe098e60	-0.13433218
58	0x3e0b5409	0.13606276
59	0xbdbd9caa	-0.09258397
60	0x3d0ff241	0.03514314
61	0x3e1f227c	0.15540498
62	0x3d7bbee6	0.06146135
63	0x3d90cdc3	0.07070496
64	0xbd7022ac	-0.058626816
65	0x3da022bb	0.07819124
66	0xbe2c9587	-0.16853915
67	0x3c3009d3	0.01074453
68	0xbe46a1dd	-0.19397683
69	0xbe58c824	-0.21170098
70	0x3e2287b9	0.15872087
71	0xbdc69c8c	-0.09697828
72	0x3de1ad00	0.11019325
73	0x3e5d14e9	0.21590008
74	0xbb44067a	-0.0029911087
75	0xbda35ee9	-0.07977087
76	0x3d181a22	0.037134297
77	0x3d6230f1	0.055222455
78	0xbe0a5bc1	-0.13511564
79	0x3e32038d	0.17384167
80	0x3d83d034	0.06436196
81	0xbe82fdf7	-0.25584385
82	0xbddc40a3	-0.10754516
83	0xbbae9997	-0.005328368
84	0x3e3ed49b	0.1863579
85	0x3d80fc09	0.06298072
86	0x3e0a361f	0.13497208
87	0x3e3fb4dc	0.18721336
88	0x3e1ad31b	0.15119593
89	0x3e2b0842	0.16702369
90	0xbdc6f512	-0.09714712
91	0x3df5684b	0.11982783
92	0xbd3b21bf	-0.04568648
93	0x3e60f650	0.21968961
94	0x3e6660fc	0.22497934
95	0xbd82a50d	-0.06379137
